hw4/model.ckpt (torch, 785119 bytes, 34 tensors)

prenet.weight f4 [80, 40]
00000000: e240 dcbd 6c77 5e3e f9d3 a1be ab8b 4c3e
00000010: b0a6 a83d 43b7 363e 893c bbbd 1a0a 1dbe
00000020: 96ec 14be 1a7c d4bd 603f 85bd 9f43 953d
00000030: aef4 7b3e 6dc7 fe3d 0b67 2d3d ca65 adbd
00000040: 2ad4 56bd 9197 45bd bccd c1bd 8570 283d
00000050: 25d3 29bd 9d0d 863d b2b2 c83c cb68 08be
00000060: 5ec2 4e3d 47d1 88bc 097c 1f3e e9e5 2d3d
00000070: 5e83 ebbd 3446 493e 3d9a 203e 4265 31be
00000080: 2cb3 1fbd 3b87 943d 1963 2c3e ad4e a7be
00000090: c2f7 9a3b 49bd 123d fbce 013d ff37 1dbd
000000a0: bc43 f3bd 0091 443d af6b c73d 8ab7 fb3d
000000b0: b283 57bd 26a5 d63d ae29 3b3e bb33 a43d
000000c0: 9624 b6be ba1d 00be cf7f 5dbd af80 f93d
000000d0: fa6f 653e 3654 fb3b 139f 483d e75c 053d
000000e0: 3bfd bf3d 4ae6 d63d 7b1a 2bbc 4622 bdbd
000000f0: d049 43bd ef00 2e3d 4f34 3fbd 1435 9cbd
00000100: 7a5b 2cbe cb67 663b 1106 06bd 5447 b13c
00000110: 3e0f babd b626 5a3e 30c2 28be 2de0 f3bd
00000120: 872c 923e 1494 083e 6f29 3bbe bb62 893d
00000130: 40ea d63c 89b4 2abe 3637 c1bd f608 613e
00000140: fd38 bb3d fde5 483d 27e6 a43d 7111 943c
00000150: ffaa 16be 54f2 6c3c 28c9 49be d169 e43b
00000160: 7977 abbd 000a be3d 763b 123e af6d 98bc
00000170: c362 25be ceed 293d 2f14 3dbd 6e69 483d
00000180: fa8a 16bd a211 153e 0948 f5bc 2e36 133d
00000190: f433 243e 31dd dfbd 33c7 c0bc 5bcb c93d
000001a0: 11af 86bd ddcb 883b 62fb 343e 6161 34bc
000001b0: d06a 08be 5318 163d 0453 853d 5050 86bd
000001c0: 3178 00be cc03 fdbb 8edf 8e3d e267 74bd
000001d0: 76da 6c3e 44d0 38be cb3f 3ebe 5b49 663e
000001e0: 7a5d 5fbd c90b 7e3e 80f4 a7bd 0124 e93c
000001f0: e661 d0bc f17d c8bc ac5e 0dbe 5965 99be
00000200: 0183 55be ff31 36be bfe3 07be a50a b5bd
00000210: c832 0f3e 0aa4 e63d fb50 033e 8143 4e3d
00000220: 6d44 993d 997c 423c a566 68bc 8b5e 0bbc
00000230: 0dd5 63be c0f9 19bd 52b6 ae3d 707a b13c
00000240: ae8d b23d 3c18 2c3c 31fe 68be b67f 1e3d
00000250: 36be 013e c316 e5bc dced d53c 37bf 9bbc
00000260: 98c0 10be 846c 55bd 8e63 1f39 2749 013e
00000270: 6b35 863b 11bd 4fbe 5ac2 843d ceea 033d
00000280: d056 003e 760b 493c 1b6f 0cbb ef28 10be
00000290: 8e7c 00be c2c8 bf3d c07a a03d e396 c2bd
000002a0: b9b9 e5bc 0f82 3e3d befb 7dbd 2d46 543d
000002b0: 0731 d63d bbb3 1e3d 1527 b83d e598 91bc
000002c0: a56f 3fbe 5532 cb3d e264 3c3e 0783 c23d
000002d0: 2343 5bbd 03d7 17be 825c f7bd d78c 253d
000002e0: dbf0 a4bd 1c58 99bd 7f2c f7bd 4e87 9fbd
000002f0: 765e 72bd 657b 90bc 0e3f 1b3e 10fd db3d
00000300: 14c6 cc3c 4dfc 863d 53a4 e83d f759 21bd
00000310: 2915 35be 7af3 0b3e 6137 9b3e cc0b 84bd
00000320: f619 a93d 05b8 4abe c7ab a7bc a776 6f3c
00000330: 1511 6f3c f306 983d ece2 e63c e889 c03d
00000340: 4c9d 18be d7fd ccbd 18ec fcbc 0520 8e3d
00000350: 488d 1a3d 7f99 11be 3aed fcbd 55fc 943d
00000360: 04a6 d33d f599 a23d 4671 df3d 8672 293e
00000370: 4219 d4bd 11e9 31be 62a6 fe3d 3752 7e3d
00000380: 0a2e 5fbe 2f0c 2f3e 092c 483e d22d 79be
00000390: 0f06 0abe 5a53 9b3e 3bca 403e 196a 97be
000003a0: 9eb1 8fbe ba60 ce3d 1fa9 34ba eb26 34bd
000003b0: 7fe8 12be 11e4 febd f4fc 30bd 0525 913e
000003c0: baab 3c3d e2a0 1a3e 118a 6fbc e1c7 90be
000003d0: f2f9 25bd 761a e93d 443f 80bd be0b 103d
000003e0: de26 b63d 0b24 b5bc 2728 b6bd c61e a6bd
000003f0: d17b febd ceb5 df3d 015e 88b9 d1ad 2c3e
-0.10754563 0.21725243 -0.31607035 0.19975154 0.08234918 0.17843346 -0.091424055 -0.15335885
-0.14543375 -0.10375233 -0.065062284 0.07288288 0.24605057 0.12440381 0.042334598 -0.0846668
-0.05244843 -0.048240248 -0.09463069 0.041122932 -0.04146113 0.06545565 0.024499271 -0.13321225
0.05047833 -0.016701354 0.1557466 0.042455588 -0.11499666 0.19655687 0.15683837 -0.17323783
-0.03898923 0.07252356 0.16834678 -0.32677212 0.004729242 0.035825048 0.031691533 -0.03838348
-0.11878154 0.047989845 0.09737336 0.12290867 -0.05261583 0.10480718 0.18277618 0.08017679
-0.35574788 -0.1251134 -0.054076966 0.121827476 0.22405997 0.007669951 0.04897983 0.0325593
0.09374472 0.10493143 -0.010443325 -0.09235053 -0.047677815 0.04248136 -0.046680745 -0.07627311
-0.1683177 0.003515708 -0.03272063 0.021640457 -0.090849385 0.2130383 -0.16480327 -0.119079925
0.28549597 0.13337737 -0.18277524 0.067082845 0.026234746 -0.16670431 -0.09434359 0.21976075
0.09141729 0.04904746 0.080517106 0.018074723 -0.14713667 0.014462072 -0.19705641 0.006970622
-0.08372397 0.09279251 0.14280495 -0.018606989 -0.16150956 0.041486554 -0.046161827 0.04892867
-0.036753632 0.14557508 -0.029941576 0.03594034 0.16035444 -0.10930861 -0.023532486 0.0985324
-0.0657636 0.004174693 0.1767402 -0.011009545 -0.13321996 0.03664429 0.065099746 -0.06558287
-0.1254585 -0.0077214 0.069762334 -0.059669383 0.23130211 -0.18048197 -0.18579023 0.2248892
-0.054532506 0.24809183 -0.082009315 0.02845955 -0.025437307 -0.024474116 -0.13805646 -0.29960135
-0.20850755 -0.1779251 -0.13270472 -0.08839921 0.13984215 0.11261757 0.1282386 0.050357345
0.07483754 0.011870527 -0.014184629 -0.0085064275 -0.22249241 -0.037591696 0.085308686 0.021664828
0.087184295 0.010503825 -0.22753216 0.038696013 0.12670216 -0.027964955 0.026114397 -0.019012077
-0.14135969 -0.05210544 0.00015200509 0.12625562 0.0040957234 -0.20286967 0.06482382 0.03220635
0.12533116 0.012270799 -0.0021428529 -0.14078115 -0.12547514 0.093644634 0.07835913 -0.095014356
-0.028042661 0.046510752 -0.06200766 0.051824737 0.1045857 0.038745623 0.08991829 -0.017773101
-0.18694933 0.099217094 0.18397859 0.09497648 -0.053530823 -0.14828114 -0.12078191 0.04041752
-0.08053752 -0.07487509 -0.12069034 -0.07789479 -0.059172116 -0.017636964 0.15160772 0.10741627
0.024996795 0.06591091 0.11359467 -0.039392438 -0.17683853 0.13667098 0.30315688 -0.064475626
0.08256905 -0.1979676 -0.020467652 0.014615691 0.014591475 0.074232005 0.028184377 0.094013035
-0.14903754 -0.100093536 -0.030874297 0.06939701 0.037732393 -0.1421871 -0.12349935 0.07274691
0.10334399 0.07939521 0.10910277 0.16547593 -0.1035638 -0.17374064 0.12434079 0.062090125
-0.21794906 0.17094491 0.19548048 -0.24333885 -0.13478874 0.3033703 0.18827145 -0.29573134
-0.280652 0.10077043 -0.0006891656 -0.043982428 -0.14346503 -0.12445844 -0.043209985 0.28348556
0.04606221 0.15100434 -0.01462032 -0.28277496 -0.04052157 0.11382 -0.06262067 0.03516745
0.08894132 -0.022111913 -0.08894377 -0.08111338 -0.1242596 0.10923348 -0.0002600998 0.1686318

prenet.bias f4 [80]
00000000: f761 3a3f 1683 dd3d 3eb0 363f 58e5 e0be
00000010: 77ed 773f 906b 0dbf bf78 ee3e 4a68 4e3e
00000020: bcb3 733e e642 f43e 6866 45bf a44b 6f3e
00000030: fa39 fd3c 3a3b e63e 3d6c 31bf 9203 3f3e
00000040: 4220 b3bd 7ef2 d63e 5c8c cd3e c06e b6be
00000050: a8dc 8bbb 3866 75be f7ef 4d3f 5342 bd3e
00000060: 4725 ccbd 26ee 193f 3ad4 4cbe 63c5 00be
00000070: 5cd7 a3bd 5df7 b0be 6bb0 01bf f269 ca3e
00000080: abae 72be 2265 033f d190 eb3e 295b 7a3f
00000090: 3cb0 3d3f 8169 873d f589 eebe 28be 9cbf
000000a0: 20d5 31bd 04f6 f9be 772b 07bd d37b 83be
000000b0: 563c 0c3e a4e4 80be 6b01 50bf 261e 703f
000000c0: fec6 a33d ad52 37be b37b a1be b0af a8bd
000000d0: e067 4dbe ae86 12bf 28bb babd 758c e7bc
000000e0: 23d3 dc3d 7cab c83d 40c1 98bd 14ee fd3d
000000f0: 8651 753c 07f9 25be 335e 4b3a 1f63 62be
00000100: fc54 dc3d ca3f 0abf 89cb 9ebc 1ace 26bf
00000110: 938b dfbe 65ec 79be a141 7cbe 6e4b b4bd
00000120: 2ac4 b63e 2f41 423e af27 993e 4893 92bf
00000130: cbd2 b4be b3e6 7bbe 8b87 643e 1919 b83c
0.7280573 0.10816018 0.71362674 -0.43924975 0.9684672 -0.5524225 0.46576497 0.2015697
0.23799032 0.4770729 -0.77109385 0.23368698 0.030911434 0.4496706 -0.69305784 0.18653706
-0.08746387 0.41981882 0.40146148 -0.3563137 -0.0042682476 -0.23964775 0.8044428 0.36964664
-0.099680476 0.6012901 -0.20002833 -0.12575297 -0.08000061 -0.34563723 -0.5065982 0.39533955
-0.23699443 0.5132619 0.46008924 0.9779535 0.7409704 0.0661192 -0.46589628 -1.2245531
-0.043416142 -0.48820508 -0.033000436 -0.25680408 0.13694891 -0.2517444 -0.81252164 0.93796
0.07996939 -0.17902632 -0.31539688 -0.08236635 -0.20059156 -0.57236755 -0.091177285 -0.028265217
0.10782459 0.09798333 -0.074587345 0.123989254 0.01497305 -0.16208278 0.0007757872 -0.22108124
0.10758397 -0.54003584 -0.019384163 -0.65158236 -0.43661174 -0.24406584 -0.2463441 -0.088034496
0.35696536 0.18970178 0.2991309 -1.1451197 -0.35317072 -0.24599724 0.2231733 0.022472905

encoder_layer.self_attn.in_proj_weight f4 [240, 80]
00000000: bb4a 8ebd 0f09 fb3a 0c52 233d fbbf 213c
00000010: 49ca cc3c cb53 033d 7dd6 143d 987a 16ba
00000020: 6f71 863c 9c95 f83d 56a1 593d 44ae 1bbd
00000030: 940b ec3d 32b0 143e c619 863d e00d 9e3d
00000040: 9fdf ba3d 2499 ccbd 33d6 6dbd 85ec 70bd
00000050: 60ad bf3d ae9a 283d 4b78 cebd 7ff9 86bd
00000060: 8e44 b13c 964a 88bd be37 efbd f1e5 f4bc
00000070: 9abc 393e 1d7f eb3c dc5d 13be d7d7 983c
00000080: 3b62 5cbd e87b 41bd 4293 21bc db9f 8fbc
00000090: a597 eb3d c5a3 9ebc 192e 453d cf27 e43d
000000a0: 6f90 953d b2d0 70bc 9273 0abd 1eaa 713d
000000b0: b900 c0bb 8d31 86bd 6def 173e b57b 48bd
000000c0: 53d8 9bbd e83d 113d 6432 5cbd d5da 8d39
000000d0: 31ba 6f3d 1041 a73c 5b93 9bbd f4fd 6dbd
000000e0: 96f0 263e b152 27bd 8353 63bc f6ab c03d
000000f0: 872e ec3d 578e 7c3d e490 a23d fe9d 3b3c
00000100: b291 4bbd e8f9 f6bd 2422 05be ef8e 893d
00000110: 18ff e9bc 365a cd3c ad15 3f3c 47b1 3b3d
00000120: 819c 8e3c f59a 81bb a058 29bd 284d 333d
00000130: fa57 a0bd ca51 46bd cff3 a53d 83f5 cc3d
00000140: 9d06 21be 0ca0 aabd fd61 e83b d3ee a43d
00000150: 600e b33d a16d 7e3b cc3a 61bd 01da 3d3d
00000160: 6c12 353d dfe2 73bd f21f c53d 444c 293d
00000170: 7ddb 153d 1431 1b3e 3c4e 5bbd 8654 70bc
00000180: 7993 adbd a666 b03d 10ac 293d 58f4 bd3d
00000190: d7a1 dc3c 314d 163e b092 d73d 2b6c 16bd
000001a0: 1548 ee3d 6fc8 d3bd 7296 fe3d d180 e0bc
000001b0: 80ac ef3d 9bfc 00be eba9 a33e 30db ac3d
000001c0: b8de d43c 6dbb 4e3d 4ccc 0ebd baf5 ca3d
000001d0: 7694 babd 73bb f93d 7441 85bc 02b4 6b3d
000001e0: ac97 c6bd 9169 8bbd 2f4c 88bc 0bcf 473d
000001f0: 2840 033d 0d0b 17bc be91 0d3d bc50 6dbd
00000200: 0cd2 7b3d 0c0f be39 8f08 1c3c 2861 0fbe
00000210: a84e cbbd 7b47 30bd 5645 9f3d cda0 17bd
00000220: b5e2 d1bd 8813 b7b9 dff8 08be b783 45bd
00000230: 5f00 d4bd 318a a5bd 2829 943d 89d6 1c3d
00000240: c1fb 74bb 2572 cbbb 07ed 7ebb 034e a23c
00000250: 5e53 c23c 4e76 eb3c f309 15be af0e 8ebe
00000260: 3fa0 1e3e e428 9c3d 27a3 5a3d 4c29 14bd
00000270: 13ea 893d 806d 8ebe ed99 553d a579 4dbe
00000280: a340 e3bd ce5b 3a3d b26b fc3d ec22 33be
00000290: dd94 31be 093b 5abc 2c71 213d 0f18 87bd
000002a0: 193a c83d 8be7 5d3d 95c3 a0bb c728 f93d
000002b0: 466a 943d 839a 943c 8768 ce3d b838 663d
000002c0: 1f1c aa3d 61e2 81bd 1186 d9bc 0678 97bd
000002d0: a7b6 48bd 7bdd ac3d 983e 04be 093e 203e
000002e0: f750 b13d 4ee1 dfbd edee cb3d 85e2 623d
000002f0: bcbd 3d3d 12c2 343d d5b5 e13d 470c 84bd
00000300: 9a1a 833d 8685 04be abbc 303d 160c c2bd
00000310: 8661 513a 3ac6 5dbe 534d 8c3d 0ad3 36be
00000320: 3f4b 21bb 75cc 443d f4ad cc3a 9e26 8abd
00000330: bf13 543e d943 97bd d637 24be 0d26 be3b
00000340: 8c28 c93d 4624 b139 74d9 b23d c5d2 86bd
00000350: f9c9 9abd b474 42bd a029 8f3b 54d7 89bd
00000360: b035 06bd 2de9 cbbd 90e5 dc3d 4685 9ebd
00000370: 37c7 71bd 1776 3e3e 712b e83d e8fa 81bd
00000380: e52b 9abd 6810 2d3e 98b5 e63d 91b2 62bd
00000390: e65e 693e d4cc 7abe bae1 a1bd 41dc 333e
000003a0: 4640 e9bd 5e1c 703d b871 583d 6550 06be
000003b0: 1908 063d 824c f9bc ce40 5bbc 3b5a 97bc
000003c0: 7e0d 35bd d02e 00bd c8c0 c0bd 9b0e a83d
000003d0: 1781 ee3d f791 09be c83c d8bd 0b7e 843d
000003e0: 2e7f f03d f21b 3bbc 7304 1fbc 7d0f 16bd
000003f0: ba2a 043e c09e 283e 7d88 df3c a176 d03c
-0.069478475 0.001915248 0.039873168 0.009872432 0.0249988 0.032062333 0.036337364 -0.0005740314
0.016411511 0.12137911 0.053132378 -0.03800799 0.11525646 0.14520338 0.06547885 0.0771749
0.091246836 -0.09990147 -0.058065604 -0.058819313 0.093592405 0.04116314 -0.10081538 -0.06590556
0.021639135 -0.06654851 -0.11680554 -0.0298948 0.18138352 0.028747136 -0.14391273 0.018657608
-0.053804617 -0.047237307 -0.009861769 -0.01753228 0.11503533 -0.0193652 0.048139665 0.111404054
0.07302939 -0.014698194 -0.033801623 0.059000127 -0.005859461 -0.0655242 0.14837427 -0.0489461
-0.0760962 0.03545943 -0.053758994 0.00027056658 0.058527175 0.020416766 -0.07596465 -0.058103517
0.16302714 -0.040850345 -0.013874891 0.09407799 0.11532312 0.061659183 0.07937792 0.0114512425
-0.049699493 -0.120593846 -0.13001305 0.067167155 -0.028564021 0.02506743 0.011662883 0.04582336
0.017408611 -0.00395524 -0.041344285 0.043774754 -0.0782928 -0.048417844 0.081031434 0.10007765
-0.15725179 -0.08331308 0.0070917592 0.080533646 0.08742976 0.0038822668 -0.054987714 0.046350483
0.04420702 -0.059542533 0.09625234 0.0413325 0.036586273 0.1515544 -0.053541407 -0.014668589
-0.08475394 0.08613329 0.041423857 0.092751205 0.02693264 0.14677884 0.10526025 -0.03672425
0.11634842 -0.10340964 0.12431039 -0.027405174 0.11702824 -0.12596361 0.31965575 0.08440244
0.025985107 0.050471712 -0.0348628 0.0991015 -0.09110348 0.12193956 -0.016266562 0.057544716
-0.09696898 -0.068072446 -0.01663789 0.048781436 0.032043606 -0.009218943 0.03456282 -0.057938322
0.061479613 0.00036250835 0.009523525 -0.14001906 -0.09927112 -0.04303692 0.07776897 -0.037018586
-0.10248319 -0.00034919032 -0.13376187 -0.048221316 -0.10351633 -0.080829985 0.072344124 0.038290534
-0.0037381502 -0.0062086754 -0.0038898604 0.01981259 0.023721393 0.028742936 -0.14554577 -0.27745578
0.15490817 0.07624987 0.05337825 -0.036172196 0.06734099 -0.27817917 0.05214875 -0.20065935
-0.11096313 0.045497708 0.12325229 -0.1749379 -0.17341943 -0.013319739 0.03941457 -0.06596386
0.09776706 0.054175895 -0.0049061277 0.12165981 0.072468325 0.018140083 0.10078531 0.056206435
0.08306145 -0.063420065 -0.026553186 -0.073959395 -0.049002316 0.084406815 -0.12914503 0.15648665
0.08658021 -0.10931645 0.09957681 0.055391807 0.046323523 0.044130392 0.1102101 -0.06447654
0.06401558 -0.1294156 0.043148678 -0.094749615 0.00079872494 -0.21657649 0.06850686 -0.17853943
-0.00246115 0.048046548 0.0015615807 -0.06745647 0.20710658 -0.07385988 -0.16036925 0.005802876
0.09822187 0.00033787097 0.08732882 -0.0658317 -0.075580545 -0.047474578 0.0043689758 -0.06730524
-0.032766044 -0.09956584 0.10785973 -0.07740264 -0.059027877 0.18599735 0.11336411 -0.06346685
-0.075279035 0.1690079 0.11265105 -0.055346075 0.22790107 -0.24492198 -0.07904382 0.17564489
-0.11389212 0.058620803 0.052842826 -0.13116606 0.032722566 -0.03043199 -0.01338215 -0.018475642
-0.04420232 -0.031294644 -0.0941177 0.08205911 0.11645716 -0.13434587 -0.10558468 0.06469353
0.117430076 -0.011420237 -0.009705651 -0.036635865 0.12906924 0.16466808 0.027286762 0.025447192

encoder_layer.self_attn.in_proj_bias f4 [240]
00000000: 8dea 1fbe 0fe4 fe3d 8adc 173e 03c9 e5bd
00000010: f2ab d9bd 9768 60be 35f5 52be 9cfa 6bbd
00000020: e24f ee3c 0934 a8be 4c3e 29bd 6f16 37be
00000030: 55a7 153d 0961 a8bd d4c8 e73c 01be c5bd
00000040: 9c67 b13e cdfc 97bd 8697 28be b4aa afbe
00000050: f664 4c3e 3bd5 42be ea8d f23d dd64 973d
00000060: 11c6 c6bd b14f d33b f2b7 acbe 6a25 a2bc
00000070: b365 1d3e 4c4b dd3d 0b13 7d3d 491c b63d
00000080: 5f89 bdbc 52d1 16bd 1f0b 373e f7a0 e0be
00000090: be1c 933e 2b27 1cbe e054 c3be 7a89 1abe
000000a0: 20cd e13d 09f3 893e ae7c 7b3c 0267 093e
000000b0: ff3e 163e 2284 4abe 8d28 2f3e 788e 0e3e
000000c0: 1d53 b73c bdf8 983e d1fe 9c3e 57ba c23e
000000d0: b156 033e 03e2 dabd 89bc 1dbe 040b 89be
000000e0: 3e06 013d 8253 bf3e 59fc c3bd 4f05 b8bd
000000f0: c8cd d43d bbc6 3a3e 0391 b1bb e8f7 653e
00000100: 8c5c 32be dd8a 733d 1f2f 00be c0e0 243c
00000110: f507 c8be 18bd d5bd 2749 853d 2bdc f2bc
00000120: f1a8 07be 614b ca3d 96b5 423d 4f2f 8e3c
00000130: 6a56 bfbe 8450 fa3e 1f2e 40bd 6598 84bd
00000140: a9c0 e43e 098b 3a3e a3fc f3bf 5caa fa3f
00000150: 6bc5 773f 6971 393f 5c11 e53e 0028 9fbd
00000160: 0a6f a3bd f0cc fd3f ae20 3f3e 340d f73f
00000170: e442 f0bf 64b9 143f ca8a f5bc f689 2d3f
00000180: 8436 f8bf 9a24 fe3e 8f42 7cbf f742 ed3f
00000190: 8c63 9fbf 512e a63f 387b 5dbf 8c2c 8dbd
000001a0: 6b35 e53e 0c37 783f 8bf5 0040 0202 ddbc
000001b0: 74ad 0abe 4e3f a73e 04fb c0be 348b 4b3d
000001c0: 20ca f43e 9438 d93e 4822 3bbf da10 3340
000001d0: 0a85 06c0 711b 943e 5109 4e40 23ca 0a3f
000001e0: bfe5 87bf ea1f a5bf 90f4 bbbe 2465 78be
000001f0: b6f6 8dbf 350a 633f 297f 0dbf aa21 47bf
00000200: e561 83bd 3ae8 bbbf 69a9 18c0 1eeb 2bc0
00000210: b56d 01bf 2d9a 1c3f 4838 ad3f 8a18 623f
00000220: 22e9 b2be 8c62 01c0 d410 903e 6c3d 533f
00000230: 60b8 783e a6f7 c1bf 1a95 f5be ac18 1dbf
00000240: 34fb 7ebd fddb 9bbe c1d3 0c3e 995b 813d
00000250: b1a7 bb3f e55b 5d3e 22f0 28bf 6b04 723f
00000260: 7d9e 1f3e a97c 0ebf 7fe3 5e3f 0aa8 913d
00000270: c2cf cd3f f7ed 27c0 0c06 f73e 8350 26be
00000280: aa8e 80be fd1a 533e 2655 ed3e e080 a0be
00000290: 58fa d23e 7f34 1a3d 2d1f 9b3d 19c5 a3bd
000002a0: ffd2 c63e 1947 843c 469e 973c 3984 54be
000002b0: c42b 2e3e fa4a 1bbe abe2 1d3e b67a 91bd
000002c0: e261 ba3e 9902 013e f8a1 dfbd 86f9 7f3e
000002d0: 5140 87bd e6ac 433e 7f40 8b3e 9b73 1ebe
000002e0: 8f62 003e bf29 11bc 6aa1 7dbe d91c abbc
000002f0: d62f db3c c9e3 95bc b405 803e c1ba b33e
00000300: 2b3f 7cbe a8b2 82bd 9007 683c 02c7 89bd
00000310: 09cf 853d ba4d 7c3e ba5a d0be df8e 4dbe
00000320: 65d7 b23d 21ad 1dbe a941 573e 6c59 84bd
00000330: 815d 1cbe a44e e7bd 440a a9be f4e0 2dbd
00000340: 6085 28be c5e3 0abe 6be7 e0bd 2808 f8bb
00000350: dddd eebe 088a 923c e6eb b3bd ae5f e43d
00000360: 51c3 983e a948 963e 038e a7be 6209 a3be
00000370: 44c7 963d 9d31 5c3e f9ee 433e 1843 f03d
00000380: 4067 4dbe b48c 0cbe e8fc 08be b630 253d
00000390: 5fa4 363b 8b53 acbe b019 5a3e e9e5 353d
000003a0: cf00 1dbe 3255 0d3e a467 bc3b 902c 32be
000003b0: d7b3 c03d 3e1a a2be 849a 5f3d 4397 b8be
-0.15616818 0.124458425 0.14830223 -0.112199806 -0.10628499 -0.21914898 -0.20601352 -0.057612047
0.029090825 -0.328522 -0.041319177 -0.17879651 0.036536533 -0.08221633 0.028294004 -0.09655381
0.3464936 -0.07421265 -0.16464052 -0.34309924 0.19960389 -0.19026653 0.11843474 0.07392285
-0.09705747 0.006448709 -0.3373409 -0.019793231 0.15370826 0.10805377 0.06178574 0.08892114
-0.023136793 -0.036820717 0.17875336 -0.43872806 0.28732866 -0.15249316 -0.38150692 -0.15091506
0.110254526 0.26943234 0.01534955 0.134182 0.14672469 -0.19776967 0.17105313 0.13921535
0.022378499 0.29877272 0.3066316 0.3803279 0.12826039 -0.106876396 -0.15403952 -0.26766217
0.031500094 0.373684 -0.09569616 -0.089853875 0.10390812 0.18239872 -0.005418898 0.2245785
-0.17418116 0.059458602 -0.12517975 0.01006335 -0.3906857 -0.104364574 0.06508093 -0.029646
-0.1324804 0.09877659 0.047536455 0.017356543 -0.37370616 0.48889554 -0.046918985 -0.064743795
0.44678238 0.182171 -1.9061474 1.958324 0.9678561 0.72438675 0.44739807 -0.07771301
-0.079801634 1.9828167 0.1866481 1.9300904 -1.8770413 0.58095384 -0.029973406 0.67788637
-1.9391637 0.496373 -0.9853906 1.8536061 -1.2452254 1.2982885 -0.8651614 -0.06893262
0.44767317 0.96958995 2.0149868 -0.026978496 -0.1354273 0.32665485 -0.3769151 0.0496933
0.4781046 0.42425978 -0.73099184 2.7979035 -2.10187 0.28927186 3.2193186 0.54214686
-1.0616988 -1.2900364 -0.36710024 -0.24257332 -1.1090915 0.8868745 -0.55272156 -0.7778574
-0.06415156 -1.4680245 -2.38534 -2.6862254 -0.50558025 0.61172754 1.3532801 0.88318694
-0.3494349 -2.0216398 0.2813784 0.825156 0.24289083 -1.5153701 -0.47965318 -0.6136577
-0.062251285 -0.30441275 0.13752653 0.06316299 1.466055 0.21617086 -0.65991414 0.9453799
0.15587802 -0.55658966 0.8706588 0.07112129 1.6079028 -2.6238992 0.482468 -0.1624165
-0.25108844 0.20615764 0.46354026 -0.31348324 0.41206622 0.03764772 0.07574306 -0.07996578
0.38832852 0.016147183 0.018508088 -0.20753564 0.17008883 -0.1516532 0.15418498 -0.071034834
0.36402804 0.12598647 -0.10919565 0.2499753 -0.06604064 0.19108924 0.27197644 -0.15473787
0.12537597 -0.008860051 -0.24768606 -0.02088778 0.026756208 -0.018297093 0.2500435 0.3510342
-0.24633472 -0.06381732 0.014161959 -0.06727411 0.065336294 0.24639025 -0.4069422 -0.20074032
0.087324895 -0.15398075 0.21021141 -0.06462368 -0.15270044 -0.112942964 -0.33015645 -0.04245086
-0.16457129 -0.1356345 -0.109816395 -0.0075693317 -0.46653643 0.017888084 -0.087852284 0.11151062
0.29836515 0.2935231 -0.32725534 -0.31843096 0.07362226 0.21503301 0.1913413 0.11731547
-0.20058918 -0.13725549 -0.13377726 0.040329657 0.002786897 -0.33657488 0.21298862 0.044408713
-0.1533234 0.1380203 0.0057496596 -0.17399812 0.09409302 -0.31660646 0.054590717 -0.36052904

encoder_layer.self_attn.out_proj.weight f4 [80, 80]
00000000: 2318 52bd d966 50bd 7bcb 06bd 69ac d33c
00000010: 546a 1cbe f8f5 7b3c 4551 fe3d 0b71 cf3b
00000020: 4cb8 9d3c cc04 20be 2bd5 c0bd 6e0b adbd
00000030: 9930 e33d 580a 823c a99d dbbd 9b7b 3d3d
00000040: 0734 9bbd f074 c7bd 2cfe 88bd 16cf a0bc
00000050: 7420 353c 10c6 873d 50ce 9dbd 2ad1 5dbd
00000060: 3825 e8bc 9a4e 283c 6d68 3fbe 7fee c63d
00000070: 9682 bfbd 3bcb 293b 8abe 29be 5d45 553b
00000080: 381c a93c 0a1d c73d 8fc7 883d 8d59 51bd
00000090: 43c3 c5bd a0c7 aebb 1fdc 7e3d 32a5 423b
000000a0: 1940 c63d f4d5 623d 363a 21be 0c2e 24be
000000b0: 4a31 263e a5f2 24bd 1436 05be ddcf 943d
000000c0: 1f25 cb3d 6ec1 873d 33ac e73d 3b20 36bc
000000d0: ed5d fa3d 1a57 dfbd 835b 36ba 95bb 85bd
000000e0: 7247 e5bd 205a 5b3d 8e13 a1bd e347 0a3e
000000f0: 57fd b73d a03e 843b e3d5 59bd 8ea6 bb3d
00000100: 77de 4cbd a146 c23d 6378 cfbd 14d9 75bd
00000110: 8e17 a93b 8560 23bb edd9 a73c bddd 913c
00000120: 2f19 0fbc 2aef f63b 65a1 d3bc f3ed f9bd
00000130: 9275 843b 04b6 213e 4712 37bc 05c0 6cbd
00000140: 40a9 20be 71bc c13d 2274 533d 2f73 3db8
00000150: 9045 0ebd e750 a23c ca6b e13c 75cb 173d
00000160: db69 34bd 0910 ff3c 2f9a 63bd fe51 113d
00000170: 0a79 113e 1867 cd3d 1f78 9abd 47d4 41bd
00000180: 1a95 9f3c 760c ee3b 4c54 7bbd 4f02 b43d
00000190: 1767 89bd 7d57 3fbe 430a d8bc a6b4 0f3d
000001a0: 7724 9abb 5436 883d 300a 9ebd 30dc 87bd
000001b0: ffba 86ba 9044 1d3e 175f d43b 2191 363d
000001c0: fb62 c5bd a71f a03d 6e8c 213d 69e8 453d
000001d0: 69b3 113d eae8 32bd 7c9b 7d3c 7a54 5e3d
000001e0: 3a2e 15bd 3448 cd3d 18e5 0fbd 2143 f2bd
000001f0: 5be8 b3bd dc43 ae3c f743 8fbd f5e1 25bd
00000200: d14b 963c 410d dcbd 6585 3fbd c766 97bd
00000210: 66e7 84bd 903e fa3d fd89 893c 7d74 e6bc
00000220: 8881 64bd 9cc8 943c 04f8 6bbd 4e18 6b3d
00000230: e7f1 a83d 680f 42be 4e76 72be 0565 f7bc
00000240: d168 7a3d 5c38 903d e7e4 373e 1585 113b
00000250: 3661 bdbc b944 1bbe d712 ecbd 2b99 953d
00000260: 55fb 9d3d b58c d63d 5947 abbd 7b1a d93d
00000270: a690 573b d73b 5c3c 5360 673e 4824 c43c
00000280: 8eb8 ebbd f32c acbd 705c 4f3c 5211 6abd
00000290: 8a4f 13bd d61e 25be b0f2 253d 01c3 18bd
000002a0: a43b 12be 0584 503e 19f1 a1bd 345f 5cbc
000002b0: 3c92 bebd 16f2 143d 33d4 b63d 345f d13c
000002c0: 07c6 d5bd 6689 08be 9fc7 04be 1ab4 343e
000002d0: d6aa b3bd 1106 ec3d fbde 2e3e ae8e 813c
000002e0: 3bfe 28bd dcf9 92bc f4e0 2fbd 993b 96bd
000002f0: f805 823d 8f77 d2bb 5d41 803d f09a 88bd
00000300: be58 e03d 54bd 9dbd 2f7e 49be 1a30 d5bd
00000310: aedd 673e 5d8b 00be 8f5d b2bc b09c 9dbd
00000320: 6125 8fbd 2898 c4bd 545f 2c3e 0c89 ebbd
00000330: f0a9 12be 0c5e 383c 8079 cb3d 5c36 fb3b
00000340: cca7 2e3d 7f2a 753d 7e01 093d 7b50 bcbc
00000350: 5593 eabb c367 19bd 3e40 b23d 4935 af3d
00000360: 192d a7bd c3da a63d 1ae9 acbd 56d0 8dbd
00000370: b97f 1b3e 9427 d1bb 5afc 1fbc 7437 63b9
00000380: 803d 1cbd 0705 c4bd c454 33bb 0f30 d1bd
00000390: 7454 b6bd 5025 64bd c11e b7bd 09dc a3bc
000003a0: 95d9 18bb 545a b7bc 049c 52bd 6463 243d
000003b0: be6b 163d 5a67 5dbe 481b bd3d ddb6 a73d
000003c0: 24ac 803d a10e 20be 3bb3 18bd cc1b 52bd
000003d0: a229 df3d b83e ed3d 2d4f 8ebc fa4f 543d
000003e0: 4555 5abd 86d3 a8bd b696 27be c30c 7d3c
000003f0: 67fd f93d 3730 18bb 5ea6 1b3d 995d 8ebd
-0.05129255 -0.050879333 -0.032908898 0.025839048 -0.15274936 0.015378468 0.12417845 0.0063306144
0.019252919 -0.1562683 -0.094156586 -0.08449446 0.11093254 0.015874073 -0.10723431 0.046260457
-0.07578283 -0.09739101 -0.066891044 -0.019629996 0.011055101 0.06629574 -0.077053666 -0.054154553
-0.02833806 0.010272646 -0.18692179 0.09713458 -0.09351079 0.0025908488 -0.16576591 0.0032542564
0.020643339 0.09722336 0.06678688 -0.051110793 -0.09656384 -0.0053338557 0.062221643 0.0029700515
0.096801944 0.055379823 -0.15744862 -0.1603319 0.1622974 -0.040270466 -0.1300891 0.07266209
0.0991919 0.06628691 0.11312141 -0.011116083 0.12224946 -0.10905285 -0.00069563853 -0.06529919
-0.11195268 0.053552747 -0.07865058 0.13503985 0.089838676 0.004035786 -0.053182494 0.09162627
-0.050016847 0.09486128 -0.10130384 -0.060021475 0.0051602786 -0.0024929356 0.020489657 0.017805928
-0.008734032 0.007535835 -0.025833795 -0.12203588 0.004042336 0.1579209 -0.011173791 -0.05780031
-0.15689564 0.094597705 0.051624425 -4.5168385e-05 -0.03473431 0.019813968 0.027517218 0.037059266
-0.044046264 0.031135576 -0.055566963 0.035478584 0.14206329 0.10029429 -0.075424425 -0.047321584
0.019480277 0.007264669 -0.06135969 0.08789503 -0.06709116 -0.18685718 -0.02637208 0.03508439
-0.004704054 0.06650987 -0.07716787 -0.06633794 -0.0010279118 0.15358186 0.006481062 0.044572
-0.0963802 0.07818537 0.039440565 0.048317347 0.03557149 -0.043679155 0.015478965 0.054279782
-0.03642104 0.10023537 -0.03513059 -0.1182921 -0.08784553 0.021272592 -0.06995385 -0.040498693
0.018346699 -0.107447155 -0.046758074 -0.0739265 -0.06489448 0.12218964 0.01678943 -0.028131718
-0.055787593 0.018162064 -0.057609573 0.057396226 0.08249264 -0.1895119 -0.23677942 -0.030199537
0.061135117 0.07042 0.17958413 0.0022204567 -0.023117643 -0.15162934 -0.11527031 0.07304605
0.077139534 0.104760565 -0.08363218 0.10600754 0.0032892614 0.013442001 0.22595339 0.023943081
-0.115098104 -0.08407011 0.012656316 -0.057145424 -0.035964526 -0.16125044 0.040514648 -0.037295345
-0.14280564 0.20362861 -0.07907314 -0.013450433 -0.09305236 0.036363684 0.089271925 0.025558092
-0.10438161 -0.13333663 -0.12966774 0.17646828 -0.08772819 0.115245946 0.17077248 0.015815105
-0.041258078 -0.017941408 -0.04293914 -0.07335586 0.06348795 -0.006422944 0.06262467 -0.06670177
0.10954426 -0.07702127 -0.19677041 -0.10409565 0.22643158 -0.12553163 -0.021773128 -0.076959014
-0.06989551 -0.09599334 0.1683324 -0.11500749 -0.14322639 0.011252891 0.09935284 0.0076663923
0.042640492 0.05985498 0.03344869 -0.022987595 -0.0071586766 -0.03745247 0.087036595 0.08555085
-0.081628986 0.08147194 -0.08442898 -0.069245026 0.15185441 -0.006382892 -0.009764755 -0.00021669065
-0.03814459 -0.095712714 -0.0027363757 -0.102142446 -0.08902827 -0.055699646 -0.08941413 -0.020002382
-0.0023323048 -0.022381939 -0.05141832 0.04013385 0.036723845 -0.21621457 0.09233719 0.08189175
0.06282833 -0.1563058 -0.037280302 -0.05129604 0.10896613 0.11584228 -0.017371738 0.051834084
-0.053303976 -0.0824347 -0.16366085 0.015444937 0.12206536 -0.0023222098 0.038000457 -0.06951446

encoder_layer.self_attn.out_proj.bias f4 [80]
00000000: fc0b 973e 3e3e cbbc ebf1 df3e 38fa a0be
00000010: a1a1 d43e b48a 63be ff83 dc3d aa6f 743d
00000020: 2f0a c13d 4375 383e b04f 98be 3b27 e7bc
00000030: c87a c0bd fb6c 513e a120 c6be ff33 73bd
00000040: e379 85be 1098 513e ee6e 663e 3dbf 413c
00000050: 8999 843a 034a 713b 9403 0f3e 6d9f a03e
00000060: 0e5a d53d 1090 983e cf5b 4fbd 5ffb 83bc
00000070: 332e cebd 8a98 66be c2dc 54be 7375 3a3e
00000080: edcf b6be 7ba6 843b 0b91 af3e cec1 9c3e
00000090: 751c e63e 2bdf 823c cce0 88bd b474 2bbf
000000a0: 1d6a 373e c792 7bbe b0b9 803e 6dd2 b63c
000000b0: 53b8 623e 1c4f 47be 439f e4be f094 0d3f
000000c0: 9ffc 2a3e 4d12 16be 18a0 2fbe 6832 08be
000000d0: f8f0 5fbe 26fb 79be c1fe b53d 1b53 f83d
000000e0: 950d 0abd cb83 dc3d 38b9 eebd ab81 97bd
000000f0: b5b9 bb3d 708e 00bd ecb0 3b3e 4593 14be
00000100: 3d0b 5c3e c318 40be b23f aebe 91f2 9cbe
00000110: 74c8 38be 0335 f0bd 4b02 1cbe 6659 803e
00000120: ea8d 073e aa6f 973e 7f85 9ebd 27ea dcbe
00000130: 6713 9abe 5a99 dc3d 4164 fbbd 36c4 803e
0.2950133 -0.024809953 0.43739256 -0.31440902 0.41529563 -0.2222088 0.10767364 0.059676804
0.094257705 0.18013482 -0.29748297 -0.028216949 -0.09398419 0.20451729 -0.3869677 -0.05937576
-0.26069555 0.20468163 0.22503254 0.01182538 0.0010116558 0.0036817796 0.13966209 0.31371632
0.10417567 0.2979741 -0.050624665 -0.016111074 -0.100674056 -0.22519127 -0.20787337 0.18208866
-0.3570551 0.0040481663 0.34290347 0.3061661 0.44943586 0.015975555 -0.066835016 -0.6697495
0.17911573 -0.2456771 0.25141668 0.022317136 0.22140627 -0.19463772 -0.44652757 0.55305386
0.1669793 -0.14655419 -0.17150915 -0.13300478 -0.21869266 -0.24412212 0.08886481 0.12125226
-0.03370436 0.10767325 -0.116564214 -0.07397779 0.0916628 -0.03138584 0.18329209 -0.14509304
0.21488662 -0.18759446 -0.3403297 -0.30653813 -0.18045217 -0.11728861 -0.1523525 0.25068206
0.1323773 0.2957738 -0.07740306 -0.43147394 -0.30092928 0.10771437 -0.12274981 0.25149697

encoder_layer.linear1.weight f4 [256, 80]
00000000: 67d0 7a3e c209 363e fa7a 42bd c660 06bd
00000010: 28ee c1bb 5199 28bc 5036 d43d 890c 3f3d
00000020: d65d 733e 4d6d e2bb 00f9 613c 3772 75be
00000030: 98f4 6f3d f339 32be dec3 a73d a2f2 883c
00000040: b80e 9f3d f259 07be b3fa c93d 66a0 923d
00000050: ae79 813e 156b 9fbd 8e46 5bbd 2147 9cbd
00000060: f79b 47bc df40 55be 9aaa e6bd 77a8 21be
00000070: 9eba 7d3e 38e1 1ebe 1060 553e 4f47 90bc
00000080: 2ff7 233e 2634 643e 60e3 27be bb17 88bc
00000090: 3c32 a0be 3a49 263e 33f2 673e a2cd 8a3d
000000a0: d6c6 c03d d1a0 97bd b150 be3d f418 433e
000000b0: f42f 34be f8c6 323d 6b01 e83d a890 6e3c
000000c0: d0c8 b7bd a188 643e bf17 143e b935 c3bd
000000d0: 0e08 1cbe 6724 f5bd c0c2 5dbe dfe0 043d
000000e0: ada1 1b3e ecd2 dcbd 9803 a5bd a594 11bd
000000f0: 528a 92be c089 30bd 25af 70be 9980 04be
00000100: 27dc e83c fa97 a4bc 5379 af3b 58c1 eebd
00000110: 8250 b1bc 12e7 45bd 6af2 3ebd 2f33 f9be
00000120: 6551 d83c f3c1 3a3d b79c 09be 0d1b 5a3d
00000130: 53dc 443a 85ab 30bb b58a c33c 2434 b3bd
00000140: 80bc 83bd 56c0 49be 2999 05bf 992b a93e
00000150: 552e 94be 5ada 303b a9fa a7bd 2d05 f6bd
00000160: db50 86b8 2ab3 c83d 59db 81bd fb96 8c3c
00000170: b51a bcbd e5d9 79ba 9ef7 253d 9077 2ebe
00000180: 7d24 013e 8a46 07be 2ae8 b83e d739 113e
00000190: b01c 1c3e e964 97be 2a8e f53d 44d7 14be
000001a0: 9423 233e 09c3 88bc 5e1d 173e c60a 613d
000001b0: 2637 8a3c 37ec bcbd e7cf 193e 61c8 27bd
000001c0: 4bfd 4ebc 8427 9a3d d35f 6bbe 28b2 253d
000001d0: d150 febd 7b4f 54be 9176 8f38 ad7f 8a3c
000001e0: 7e88 953e 1791 5f3e d173 2bbe 9310 0dbe
000001f0: 2fb7 90bd 9536 a73d caaa a43d b0a0 b4bd
00000200: 7a19 17be 9129 4d3e 05cb afbd ec0a a83d
00000210: 31ec bfbd 0add 123e a601 f33d d927 b6bd
00000220: 493e 8cbd 1a69 c3bd e399 cc3d 4adb 73be
00000230: 3134 2cbc ac60 a63d 3375 5e3e c733 c33d
00000240: 927e 32be 12e9 aa3e 879d 9cbd e0cc f0bd
00000250: c167 423c f1d7 37be 4b2c 1bbe f7bc 4b3e
00000260: 28b3 863e f3e7 26be 0e70 8f3c 8dc4 c53c
00000270: 8829 42bd fc8e c7bb 9c6d 203d 5e3c 07be
00000280: 8806 e2bd 1515 06bd 1072 87be 5ce9 053e
00000290: ed7b e03c 9411 53be 3250 003d 8a1f 3fbe
000002a0: cba9 79be 66fa 763c 8d68 6dbd b941 f83c
000002b0: dd39 e13d 9a3a f33d fcb9 b33d 31c0 833d
000002c0: aa7d 563d 395a a1bd 45b1 1e3d fb20 853d
000002d0: 48df a3be c16d 05bd 65ac 97bc 126a ebbd
000002e0: e421 d33d 2c83 943e 1b93 563e 64e4 143e
000002f0: 9f23 6f3c f461 4e3e 73f6 c03c bd02 8bbc
00000300: 3860 08be 387b 4e3e 09bc f8bd 31b0 4f3d
00000310: db76 f03d 2bdf 133c c39a 16be 3fb1 3cbd
00000320: 6dde c4bd 7287 6b3d 3748 0bbe c270 aebe
00000330: e2e9 95bc 1fb8 993e 11eb 09bd 2f24 42be
00000340: a1c1 21bd 1089 573d 213a f23b 0f0b 5a3e
00000350: 7423 87bd d9a1 5dbd 1a23 06be 784f 7fbe
00000360: a7c3 343e 9c70 873d 78db 89bd 3ff2 563c
00000370: d55e 9b3d 2e8d b33c 548e 7f3c 8bad 333e
00000380: e580 9ebe 5fd2 213e 42a6 603e 001a 81be
00000390: 77f8 46bd 711d 883c 524e 14be 44bf 093e
000003a0: 4b4f e73d ca3d e8bd 67ab 3c3e afb3 d83b
000003b0: ecb1 513e 4e29 b7bd 5c73 e33d 0a0c 85be
000003c0: d2c6 3d3d bbf2 49bd 0786 183d 1b69 2d3e
000003d0: 64eb 5d3e deb0 363e 0ce1 c63e cb21 1d3e
000003e0: a43e c73d fcb1 a03c 7927 0dbe 6527 24be
000003f0: 9aab c7be 52e5 22be fbf6 4cbe 9d88 07bd
0.24493562 0.1777716 -0.04748056 -0.032807134 -0.005918283 -0.01029046 0.10361922 0.046642814
0.23766264 -0.0069100023 0.013792276 -0.23969351 0.058582872 -0.17404918 0.081916556 0.016717259
0.07766479 -0.13217905 0.0986227 0.071595 0.25288147 -0.07784096 -0.053534083 -0.07630754
-0.012183181 -0.20825528 -0.112630084 -0.1578692 0.2477822 -0.15515602 0.20837426 -0.017612128
0.16012262 0.22285518 -0.1639533 -0.016612878 -0.31288326 0.16238871 0.22650985 0.067775026
0.09412925 -0.0740372 0.092927344 0.19052488 -0.17596418 0.043646783 0.113283955 0.014560856
-0.08973849 0.22317745 0.14462183 -0.09531731 -0.15237448 -0.11969834 -0.21656322 0.032441016
0.15198393 -0.10782418 -0.08057326 -0.03554215 -0.28621155 -0.04310012 -0.23504312 -0.12939681
0.02842529 -0.020092 0.005355039 -0.11657971 -0.021644834 -0.04831607 -0.046617903 -0.48671862
0.026406 0.04559512 -0.13438688 0.053248454 0.00075096375 -0.0026957702 0.023869852 -0.087501794
-0.06432438 -0.19702277 -0.5218683 0.33041075 -0.289416 0.0026985616 -0.082021065 -0.12012706
-6.4046784e-05 0.09799798 -0.06340665 0.017161837 -0.091847815 -0.0009531065 0.04051935 -0.17037797
0.12611575 -0.13210502 0.36114627 0.1418222 0.15245318 -0.29569176 0.11990006 -0.14535242
0.1593154 -0.016694563 0.14757296 0.054941915 0.016872 -0.09224742 0.15020715 -0.04096258
-0.012633632 0.07527068 -0.22985773 0.040453106 -0.12417758 -0.20733444 6.840856e-05 0.016906584
0.29205698 0.21832691 -0.16743399 -0.13775854 -0.070661895 0.081647076 0.08040388 -0.08819711
-0.14755812 0.20035388 -0.08583645 0.08205208 -0.09371222 0.14342132 0.11865549 -0.08894319
-0.068478175 -0.09541531 0.09990289 -0.23814121 -0.01051049 0.081239074 0.21724395 0.0953136
-0.17431095 0.33380944 -0.076472335 -0.11757827 0.011865557 -0.17953469 -0.15153615 0.19896303
0.2630856 -0.16299419 0.017509487 0.024141574 -0.04740289 -0.006090043 0.03916703 -0.13206622
-0.11036402 -0.03273495 -0.2645421 0.13077301 0.027402842 -0.20612174 0.03132648 -0.18664375
-0.24381177 0.015074348 -0.057961036 0.030304777 0.10997365 0.11876412 0.08775708 0.06433142
0.052365936 -0.07878537 0.038743276 0.06500431 -0.32006288 -0.032575373 -0.018514821 -0.11494841
0.103091985 0.29006326 0.20954554 0.14540249 0.014595895 0.20154554 0.023555016 -0.01696908
-0.13317955 0.20164192 -0.1214524 0.05070514 0.1174142 0.009025375 -0.14707474 -0.046067473
-0.09612737 0.057502218 -0.13601767 -0.34070402 -0.0183 0.30023286 -0.033671442 -0.18959115
-0.0394913 0.052620947 0.0073921834 0.21293281 -0.06598559 -0.054109428 -0.13099328 -0.24932659
0.1765276 0.066132754 -0.067313135 0.013119279 0.07586447 0.021917906 0.0155978985 0.1754667
-0.30957714 0.15802906 0.21938422 -0.2521515 -0.0485768 0.016615601 -0.14483002 0.13451868
0.11294421 -0.1133991 0.1842476 0.006613217 0.20478028 -0.08943425 0.111059874 -0.25985748
0.046332188 -0.04930375 0.037237193 0.16934626 0.21671826 0.17840907 0.38843572 0.15344922
0.097287446 0.01961612 -0.13784589 -0.16030653 -0.3899811 -0.15907791 -0.2001609 -0.03308927

encoder_layer.linear1.bias f4 [256]
00000000: dbb4 45be 83ad 8dbd 0b7c d3bd dd49 1cbe
00000010: c110 44be 684b fbbd cc90 99be 0649 0bbe
00000020: 7d9c ddbd 36d4 89be 057a 4fbe 1b85 81be
00000030: e393 76be 9a1d c6bd 0d23 18be 980a 67bd
00000040: f23a 0cbe 854a 8dbe 5bd0 05be 130f 26be
00000050: 0d22 e5bd 3f28 92be 6c80 bdbd 1fed 48be
00000060: 92ef 22be 8982 06be 7c2e 4cbe f5cf 0cbe
00000070: 9f68 26be f76c 34be 7612 53bd 91ca a0bd
00000080: 1130 14be da14 fcbd 08c7 32be 07f8 04be
00000090: 614d 37be a23b 4fbe a0b2 07be 69d1 fabc
000000a0: d6c5 19be 69db 78bd a039 18be 2633 69be
000000b0: 6ed6 d2bd fe91 60bd a739 83be d8fc d1bd
000000c0: eb3d 26be df10 4cbe 890c 16be f4e7 09be
000000d0: 8306 f2bd fe09 74be 6ecc 56be d747 4ebd
000000e0: 9ff7 08be 90be 34be 8110 dc3c 7938 e0bd
000000f0: 925b 28be ce6a 86be 06b9 74be 652b 90be
00000100: 1cf1 29be e8bf 32be 45ff 31be ed70 3bbe
00000110: efe3 36be 346f 7ebe f2b7 90be 03a9 5dbe
00000120: 71aa 33be 596e 51be c103 bdbd 00fa 20be
00000130: eb76 6ebe c3ed 16be 90cd 44be 008f 33be
00000140: af73 69be 27ea 38be 1231 b8bd cee1 e1bd
00000150: 4349 2c3c 581c 45bd 1338 ecbd 5ac2 84be
00000160: 094a aabd c25c 51be 7138 2cbe 76f8 4dbe
00000170: 896c 83be d803 f0bd f966 69bc 6cda 48be
00000180: e834 0ebe 8346 0ebe b744 0dbe 7365 0dbe
00000190: c8ba 80be 82f9 5dbe c1c4 90bd f5e7 2bbe
000001a0: 6d13 24be a1c7 60be 385a d8bd bcfb 2ebe
000001b0: c290 01be 1e03 3bbe 4481 e7bd 7d97 38be
000001c0: 0e4f 64be 9c06 f1bc 9333 31be 43ba 2bbe
000001d0: 8689 0cbd 96b7 07be 4f1f 4cbe 0337 2abe
000001e0: 17cd 88be e234 5dbe 4ead c0bd 46da 0ebe
000001f0: fb1b 1dbe 3920 b8bd ea1a f6bd 91a2 48be
00000200: 1396 4fbe 5cdc d5bd 69c1 88bd 2598 31be
00000210: d5d1 46be 8fa6 b1bd 2b5b a2be 0ec4 9cbe
00000220: a6b0 7abe 2adf 67bd f72f 38be c2dc 1abe
00000230: f605 90bd ef5c c3bd a585 e7bd a441 1ebe
00000240: ff69 1abe ba58 4cbe 8593 14be 13f2 e5bd
00000250: 5c00 a3bd 19c2 3bbe 7d3c adbd e39a 33be
00000260: c141 13be 1e22 bdbd 2bad 65be 0afa 5bbe
00000270: 2976 22be 09cc 05be 9f60 a6bd c1e6 99bd
00000280: c8d7 a6bd 5e97 43be 8d8d f6bd ca27 ddbd
00000290: 1be0 41be 08da 6fbe fa90 2dbe f8e7 23be
000002a0: cf36 46be e5e5 d0bd 10ab 99be f6b6 80bd
000002b0: e6f4 1dbe 48de 3cbe fa46 77be 7933 d3bd
000002c0: d999 87be 655c 2abe 3347 2abe 10df fdbd
000002d0: 0f6f 98bd eccc 6dbe d0fb 03be fa2b a6bd
000002e0: e066 66be d2c7 1fbe 491b 30be f78d 39be
000002f0: aab5 44bd 7f37 61be 60ad 1dbd dc10 72be
00000300: 7d0c 4cbe d548 bfbc 4718 95bd a054 7ebe
00000310: 07e7 0cbe 7f8f 05be 8dc6 2abe 313c 41be
00000320: ba43 13be d13a 1cbe 61af 88be 56f6 74be
00000330: 9534 79be ea73 9dbe b35e 38be 157c 41be
00000340: d3a1 2bbe 6943 7cbe 2119 1ebe 291a 2cbe
00000350: eeef aabd af07 4abe 556e 3cbe 4154 4cbd
00000360: b372 47be b667 23be 4859 04be 0925 1fbe
00000370: cf7a 03be b2dd 1bbe 99ec 46be 9491 3fbe
00000380: b86e 2dbe 6827 d1bd 8270 2dbe 1ae4 6cbe
00000390: eb8d 3bbe 435d 3cbe 1358 4cbe e9f6 debd
000003a0: 04fb 40be 9973 62be 64d7 2bbe c540 a2be
000003b0: 99c6 77be a548 f5bd 5da6 1dbe 3946 f0bd
000003c0: b092 27be 7f1e e9bd 3174 13be 5f52 24be
000003d0: 75c8 e9bd 59b1 4fbe 82c2 87be 9c9b 81be
000003e0: c42d 4bbe 880e 04be 3a07 46be dd8e 14be
000003f0: 4a7d 61bd 063c abbd 82e4 1abe 24b1 7cbe
-0.19307272 -0.0691786 -0.10326394 -0.15262552 -0.19147016 -0.12270242 -0.29993284 -0.13602075
-0.108208634 -0.26919717 -0.2026139 -0.25296864 -0.24079852 -0.09673615 -0.14857121 -0.056406587
-0.13694361 -0.27595916 -0.13067763 -0.16216688 -0.11188135 -0.2854633 -0.0925301 -0.19621705
-0.15911701 -0.13135733 -0.19939607 -0.13751204 -0.16250847 -0.17619692 -0.051531278 -0.078511365
-0.14471461 -0.123086646 -0.17458737 -0.1298524 -0.17900611 -0.20237592 -0.13251734 -0.030617433
-0.15016875 -0.06075612 -0.14865732 -0.22773418 -0.102948055 -0.05482673 -0.25629923 -0.10253304
-0.16234557 -0.19928311 -0.1465322 -0.1346739 -0.11817648 -0.23831937 -0.20976421 -0.05036148
-0.1337571 -0.17650819 0.026863338 -0.10948271 -0.16441181 -0.2625336 -0.23898706 -0.28158107
-0.16595882 -0.17456019 -0.17382534 -0.18304797 -0.17860387 -0.24847108 -0.2826534 -0.21646504
-0.17545487 -0.2045225 -0.092292316 -0.15720367 -0.23287551 -0.14739136 -0.19219041 -0.17535019
-0.22798036 -0.18058072 -0.089937344 -0.11029397 0.010515514 -0.048122734 -0.11534133 -0.25929528
-0.08314902 -0.2044554 -0.16818406 -0.20114312 -0.25668743 -0.11719483 -0.014245742 -0.19614571
-0.1388737 -0.13894086 -0.13795744 -0.13808231 -0.25142503 -0.21677211 -0.07068778 -0.16787703
-0.16023035 -0.21951152 -0.10564083 -0.17088217 -0.12652877 -0.18262908 -0.11303952 -0.18026538
-0.22295782 -0.029422097 -0.1730483 -0.16770272 -0.03431084 -0.13253626 -0.19933818 -0.16622548
-0.2671897 -0.21602204 -0.09408055 -0.13950452 -0.15342705 -0.08990521 -0.12016852 -0.19593264
-0.20272093 -0.10442421 -0.06677515 -0.17343195 -0.19415982 -0.08674347 -0.3171018 -0.30618328
-0.24481449 -0.05660931 -0.17987047 -0.15123275 -0.07032387 -0.0953921 -0.113047875 -0.15454727
-0.15079497 -0.19955721 -0.14509399 -0.112278126 -0.07959053 -0.18335761 -0.08458803 -0.17539553
-0.14380552 -0.09235023 -0.2242934 -0.21482101 -0.15865387 -0.13066114 -0.08123898 -0.07514716
-0.08146626 -0.19100711 -0.120387174 -0.10798605 -0.18933146 -0.23423016 -0.16949835 -0.16006458
-0.19356845 -0.10200099 -0.30013323 -0.06284897 -0.15425453 -0.18444169 -0.24148169 -0.10312552
-0.26484564 -0.16636808 -0.16628723 -0.123960614 -0.07443058 -0.23222703 -0.12889028 -0.081138566
-0.22500181 -0.15603569 -0.17197908 -0.18120562 -0.04802481 -0.21993826 -0.03849542 -0.23639244
-0.19926639 -0.023350159 -0.07280021 -0.2483697 -0.13760005 -0.1304302 -0.16677304 -0.18870617
-0.14381304 -0.15256812 -0.26696303 -0.23922095 -0.24336465 -0.30752498 -0.18004875 -0.1889499
-0.1676095 -0.2463509 -0.15439273 -0.16806854 -0.08346544 -0.19729494 -0.18401463 -0.04988504
-0.19477348 -0.15957531 -0.12924683 -0.15541472 -0.12839817 -0.15221289 -0.19426192 -0.18707877
-0.16936767 -0.10212594 -0.1693745 -0.23133889 -0.18315856 -0.18394952 -0.19955473 -0.10886938
-0.18845755 -0.2211441 -0.16781384 -0.3169004 -0.24196853 -0.119767465 -0.15395494 -0.11732144
-0.1636455 -0.1138277 -0.14399792 -0.16047047 -0.11415187 -0.20282497 -0.26515585 -0.25314033
-0.19841677 -0.12896168 -0.19338694 -0.14507623 -0.055051126 -0.08361058 -0.15126231 -0.24676949

encoder_layer.linear2.weight f4 [80, 256]
00000000: 9ddd 58bd b7a1 efbd dbe7 06be 6b9e 1ebe
00000010: 4e25 02be 827f 9fbd c763 4f3e 9408 a93d
00000020: 7e50 f8bd f530 99bd 48a7 b53e b865 183d
00000030: 3bc9 2b3e fb34 78be ef69 383e 43df 0bbd
00000040: a1f4 40be 6850 f23d 5dea 51bd 807b 343d
00000050: 32e8 863d 83a6 603e bb6e 1fbc 0ab0 10be
00000060: b01a b43c 7fe7 d23d 1d4d c63d 6aa1 a1bd
00000070: b853 6a3d 1cc3 8ebd efed 29be a3c1 9abd
00000080: d2a4 153d 7b10 24be 5ebf 1ebe 014b 2abd
00000090: f9d6 2d3d e0e7 233c 7a11 463e e48a 853e
000000a0: 31f9 20be 5050 b4bc 0633 9e3c 50d7 bc3d
000000b0: 9cf1 33bd 5173 30bd f731 50bd bded 0abe
000000c0: f5f0 9e3d 30a8 293b 96d6 08be 44c6 1a3d
000000d0: ebe3 54bd 70ae 953d 0f9b a2be 89a5 babc
000000e0: 6e71 3d3d 0e27 c13d 5230 e0bd 813f 423e
000000f0: 6430 fb3d be43 573e f058 29bd a13f 00be
00000100: 96d3 d5bd 9d63 2cbe 335b c23d e8fd 02be
00000110: 6d0b 3fbe f6f6 063e b717 463d 6c35 1ebd
00000120: 6ba0 47be 58aa c03d f8db 543d 46fe 0dbe
00000130: e0d7 273e b139 00be 732e 6d3d 4a97 77bd
00000140: 3d36 82be 3cbe 0cbe 7e21 9fbe b0fa a0bd
00000150: 858d 0e3e 231b 32be d4b2 cdbc d2e7 a4bc
00000160: f393 d83d 4781 7a3d 4e38 9fbd 952d e5bc
00000170: 5bc5 583e b512 743d 7cc9 8bbd e9c7 2b3b
00000180: 73e7 84be c12a 9f3d 3b49 cebc 8663 42be
00000190: 146b 89be 9575 913d c234 563e 7d26 81bd
000001a0: d541 41be 8ad6 36bd 9cf1 b43d cf06 0d3e
000001b0: 1f52 7bbe 5af6 b03d 8d37 45be fad0 0fbe
000001c0: d353 613d 08fd 87be cc23 56be 2cc4 69be
000001d0: 0a29 c3bd b614 013e b3e3 4dbe 9186 f9bd
000001e0: 457e b23d 5bac 403d aac6 63be 4f34 1b3e
000001f0: ccb8 613e 49d1 a1bc a700 e6bd 1abd 33be
00000200: cd79 ab3d 1471 ce3d 50a3 f2bd 40db 5e3d
00000210: 3011 a3be 0a4b 853d 191a 07be 6b48 46bd
00000220: 559d 913e 132b 4bbe bbe4 81be c573 22be
00000230: bd18 863e e408 8abd f553 acbd 3f39 4fbe
00000240: 5416 413d bb57 123c d991 033e 6437 d2bd
00000250: eeb7 83be f800 94bd 1fb4 af3c 134d 54bd
00000260: 276a 68bd e68e 02bd b549 91bb 2d63 28be
00000270: 00ce 803d 87fe 40be dd47 163e 09e0 8dbd
00000280: c0c7 823e c87c 85bd df4b c0bd 639c 07be
00000290: 959b 1fbe dfce 2dbe b7b1 3bbe fcb6 8bbd
000002a0: 8abb 3abe 1e2e 25be dc83 5d3e a28b f33d
000002b0: 8fd0 86be 6773 93be f1d8 a83d 3d91 f0bd
000002c0: ee24 b1bd b023 343b fa99 6fbd ec29 653c
000002d0: 1fcf 293e 5061 afbc 349b e6bd 766f 45bd
000002e0: b6fe 66be 41bb cf3e b994 c7bd 0f6d 513e
000002f0: 02a5 32be 5a06 e1bd 18fd df3b 5288 b8bc
00000300: 6d04 2d3e 8c57 86be e509 f1bd c9e2 ed3d
00000310: 1953 b43d 516d dabc 6ca2 5c3e cc45 febd
00000320: 5d7d 0e3d 30bf 083e 34a0 8c3e 6af3 0a3e
00000330: 3f8f 2abe 8dca 1d3d e2d7 18bd c6a2 51be
00000340: b1d5 c7bd de63 003e 8802 98be 5d09 4bbe
00000350: 2065 bd3a c05e 0e3d b825 32be 813a 8d3d
00000360: 9a94 bcbd ddc9 60be 4b54 bbbd bc1a 46be
00000370: 788b 81be 4905 343d 8222 cabd 2a89 84bd
00000380: 5e9e 573d fe27 5bbe 28aa 05bd 7010 6cbe
00000390: 8b26 643d fd43 163e ef31 73bd 1e04 09bd
000003a0: 434d acbe 0dd6 3fbe 9cc5 2f3e cb9f 87bd
000003b0: 3c1b 28be 711a 63be d8ea 743d c972 90be
000003c0: acc2 1bbe 5181 263e a158 b1bd fa91 21be
000003d0: 10b5 d9bd 0049 443d 2378 223d 30ed ecbc
000003e0: 09e2 cd3d 963a 753e 5f95 7c3d 811b 1f3e
000003f0: 3f13 40be 58a6 06be 18b7 773d 8966 953e
-0.052945722 -0.117007665 -0.13174383 -0.15490119 -0.12709543 -0.07787992 0.20252906 0.08253589
-0.12124728 -0.07480041 0.35479188 0.03720638 0.16775982 -0.2423896 0.1800916 -0.034148466
-0.18843319 0.118317425 -0.051248897 0.04406309 0.065872565 0.21938519 -0.00973099 -0.14129654
0.021985382 0.102980606 0.09682677 -0.078921154 0.057208747 -0.06970808 -0.1659467 -0.075564645
0.036534138 -0.16021912 -0.15502688 -0.041575436 0.042441342 0.010004014 0.19342604 0.26082528
-0.15720059 -0.022010952 0.01931144 0.09220755 -0.04393159 -0.043078724 -0.0508289 -0.13567252
0.07760803 0.00258876 -0.13363108 0.037786737 -0.051975172 0.07308662 -0.31758925 -0.022784011
0.046250753 0.09431277 -0.10946716 0.18969537 0.12265089 0.21021935 -0.041344583 -0.12524273
-0.104407474 -0.16834874 0.09490051 -0.1279217 -0.18656702 0.13180146 0.04836246 -0.038625166
-0.19494788 0.094074905 0.05196759 -0.13866529 0.16390944 -0.12522008 0.057905626 -0.060447015
-0.25432006 -0.13744444 -0.3108024 -0.07860315 0.13921173 -0.17393164 -0.025109686 -0.020130072
0.10575094 0.061158445 -0.07774411 -0.027975837 0.21169035 0.059588153 -0.068255395 0.0026211685
-0.25957832 0.077718265 -0.025181403 -0.18983278 -0.26839507 0.07102505 0.20918563 -0.06306169
-0.18872769 -0.044638194 0.08835146 0.13772129 -0.24543045 0.08640738 -0.19259472 -0.14044562
0.05501158 -0.26560235 -0.20912093 -0.2282874 -0.09529312 0.12605557 -0.20106392 -0.1218387
0.0871549 0.04703937 -0.22243753 0.15156673 0.2204315 -0.019753115 -0.11230593 -0.17552605
0.08372841 0.10080162 -0.11847556 0.05440831 -0.3184905 0.06508453 -0.13193549 -0.048408907
0.28440347 -0.1984065 -0.2536982 -0.15864475 0.2619075 -0.06739977 -0.08414451 -0.20236681
0.047140434 0.008932049 0.12848605 -0.10264471 -0.25726265 -0.07226747 0.021448193 -0.051831316
-0.05674186 -0.03187456 -0.0044338354 -0.16444083 0.062892914 -0.18847094 0.14675851 -0.06927497
0.25543022 -0.06517941 -0.09389471 -0.1324325 -0.15586694 -0.16973446 -0.18329512 -0.06822011
-0.18235603 -0.16130874 0.21632332 0.11891867 -0.26330993 -0.28798983 0.08244503 -0.11746452
-0.08649622 0.0027487092 -0.058496453 0.013987046 0.16582917 -0.021408707 -0.112600714 -0.048202
-0.22558102 0.4057255 -0.097451635 0.20451759 -0.17445758 -0.109875396 0.006835591 -0.02252594
0.1689622 -0.26238668 -0.11769465 0.116155215 0.08804912 -0.026663454 0.21546334 -0.124156564
0.034787524 0.13354182 0.27465975 0.13569418 -0.16656207 0.038523246 -0.037315257 -0.2047225
-0.09757555 0.12538096 -0.2968943 -0.1982779 0.0014449693 0.03475833 -0.17397201 0.06895924
-0.09208031 -0.21952005 -0.09146937 -0.19346136 -0.2530172 0.043950353 -0.09869863 -0.064714745
0.052641265 -0.21401975 -0.032632977 -0.23053145 0.05570082 0.14674373 -0.059373792 -0.033451192
-0.33652696 -0.18733998 0.17165226 -0.06622275 -0.16416639 -0.22178055 0.059794277 -0.28212574
-0.1521098 0.16260268 -0.08659483 -0.15778342 -0.10630238 0.04792118 0.039665353 -0.028921694
0.100528784 0.2394813 0.06166589 0.15537836 -0.18757342 -0.13149393 0.060477346 0.2917979

encoder_layer.linear2.bias f4 [80]
00000000: 80fa 303d b779 473d 4ff7 cc3c 5fa7 60be
00000010: b090 3c3d 3162 8ebd 6ac1 2abd eee9 23bd
00000020: 78e9 a2bd 009f 6abc cbf8 753c 13c6 5ebc
00000030: c109 c7bb cbeb c43c 4d5e 4a3d ab2a 283d
00000040: 7ad1 17bd 3f66 74bd 8e0e 233d 18ad 033d
00000050: 8e0f abbb 2101 27bd 1c47 373c d9df 99bc
00000060: a108 163d 9c60 193d dfb2 9e3c c5c8 9dbd
00000070: 5f4b eebd e22b 94bd d745 7d3d ffd1 d8bd
00000080: 97a3 0c3d e4ca 0e3e b8ac 1b3d b89e da3d
00000090: 9811 573d c6b5 29bd 5425 81bd 210a 5ebc
000000a0: 6693 abbc 57d5 073d 6ea2 1abd 13dd 9c3c
000000b0: 26dc 6dbc caf0 59bd e693 ed3d 5ab3 cbbc
000000c0: 08ba ec3b aa36 d33d abef 1abd 3652 a83d
000000d0: af01 be3d 9c7c 133e 04ba 7f3d 664c 83bc
000000e0: 07b8 403d abb0 d23c a678 fa3c e887 be3d
000000f0: a30c 12be 6243 6f3d e7c7 46bd 8bf7 21bd
00000100: c3c2 03bc 3f95 9a3d c5c1 fdbd b910 803d
00000110: c0a5 e1bd 74b5 793b d7ce 46bc 98ae 54bd
00000120: 792e eebd 2acb f6bc 0cc7 46bd 2d90 a0bd
00000130: daa3 6abc a100 53bd a53d 7c3d 1bb8 643c
0.043207645 0.04870006 0.02502027 -0.21938847 0.046036422 -0.06952322 -0.04168836 -0.040018015
-0.07954687 -0.014320135 0.01501293 -0.013597029 -0.006074161 0.024038216 0.04940634 0.041056316
-0.037065007 -0.059667822 0.039808802 0.032147497 -0.00522036 -0.04077256 0.011186387 -0.018783497
0.036629323 0.03744565 0.019372402 -0.077043094 -0.1163547 -0.072349325 0.061834183 -0.105869286
0.0343357 0.13944584 0.038006514 0.106748044 0.052507013 -0.04143312 -0.06305948 -0.01355222
-0.020944308 0.03316244 -0.03775256 0.019148385 -0.0145178195 -0.05320815 0.11600475 -0.024865795
0.007224325 0.10313161 -0.03782622 0.082188055 0.09277665 0.14403003 0.062433258 -0.01602764
0.047050502 0.025719007 0.030575108 0.09303266 -0.14262633 0.05841387 -0.048530485 -0.039542716
-0.00804204 0.07547998 -0.12390474 0.062531896 -0.110179424 0.003810254 -0.012134275 -0.051924318
-0.11629958 -0.030126173 -0.04852967 -0.07839999 -0.014321292 -0.05151427 0.061582226 0.01395991
