hw1/models/model.ckpt (torch, 6516 bytes, 5 tensors)

layers.0.weight f4 [16, 53]
00000000: 5af1 3d3c 620e 063e 7183 263d 0e97 fabb
00000010: b7b1 c23d 4b6e 283d 1f4a 0fbd 9778 243d
00000020: a061 f93c 73da 83bc 43c9 47bd d8a3 7dbd
00000030: 9d19 21bd 15b3 63bd 9b5d 0e3d fd97 90bb
00000040: 3920 a43d b38c 9c3d b306 113e 8fb3 de3d
00000050: 24e1 883d 6120 bebd 862e a53d 552a 083e
00000060: bfc0 773d 25e9 2ebd 64f7 9a3d 7065 a53d
00000070: eb49 17be 345d c23d 0e61 be3d fb63 09be
00000080: f622 e8bc 9654 88bd e817 1c3b 3fe5 be3e
00000090: 5800 5fb9 9c00 92bd 1b8b 8d3d b0b4 bd3d
000000a0: 1548 92bc 9b75 033e 1591 8fbd ae53 d0bd
000000b0: 7ccb c7bd 4fff e8bd dcd6 923d e2cf 5abc
000000c0: b163 ed3d dbc2 96bd 50f6 e7bd c8c1 9e3d
000000d0: 8ac6 ae3d 8c0b 69bd b730 923d d2b9 7dbd
000000e0: 8dc0 b6bc c8a2 e6bd ece8 d03c e486 e3bc
000000f0: f8c1 c3bd 592b dbbd df9b 5bbd 9837 a23c
00000100: 43fb 80bd 4dc3 babd 3790 b13d 6959 5b3c
00000110: fcf6 0e3e 8143 ba3d 8f2a 8e3d 2da1 aa3d
00000120: 94ec e0bd a3b9 86bd 844f a63d 2999 ed3d
00000130: bf48 a63d 2095 51bd d4a2 c53d bbe8 12be
00000140: f4c9 063d 3b89 1cbd 1a48 a93d dda0 033e
00000150: 0ad7 123e 6dd0 e93d 95a6 ac3d 2951 70bd
00000160: e929 f6bc 73bf 0ebd 2881 b53d b0cb 403c
00000170: af35 a2bd 183a 93bd 10b9 ebbc 22f8 503d
00000180: c848 e53d 2929 233c ab6f ebbd 6016 873d
00000190: e393 90bd b466 963d 4a62 9e3d bbe3 a9bb
000001a0: d652 a3bb b1ca 173c 5c52 8c3d 7052 e63d
000001b0: a098 aabd b541 cc3d e96c efbb af7a 253d
000001c0: 96b0 d1bd 9508 a63b a3d8 df3d 53bd 283d
000001d0: fbf1 ecbb 3227 51bd 66dd a63c 09a9 b13d
000001e0: 797c fe3d 32bb a8bc c195 e83c 9bac a53c
000001f0: 2367 9f3d 0689 77bd 610f 823d 50cb 623c
00000200: ca37 aabc 5fc6 1a3d ab3f a53d 59b9 22bd
00000210: 1939 0ebe 0cbb bbbc 9562 edbd 00a8 a83d
00000220: e4c0 093e d6f1 cd3c e349 fa3d 0374 a03d
00000230: c220 40bd 8df2 863e 07b4 dcbd 146a c3bd
00000240: 43db 9abd b68b 5ebd 65f3 543c cbb9 3e3d
00000250: 498b e93d e345 6cbc 44b9 a0bd 0776 f93c
00000260: 678f 5ebb 21fc acbd 67b8 ad3b 10f9 52bd
00000270: fd5c 5d3d 6ac2 7a3d 589b a23d abb7 763d
00000280: 0245 0fbd da99 ee3d a955 2f3d 374d 333d
00000290: b2b1 f3bd be5c 0bbd 5cac 833d 3f83 013e
000002a0: 33e3 0bbe 0f33 30bd 4d6e b3bc 542f 82bd
000002b0: cf10 6cbd 5035 99bd f2aa df3c 8394 8c3d
000002c0: 7462 f53c 550b 7d3d 2d85 223c 273e 8fba
000002d0: 5426 903d 71ab ba3b 93c1 623d a59e 11bd
000002e0: 711e afbd 45d0 aa3c f86b a83d 8993 c3bd
000002f0: 9c30 3abd d1a3 52bd 97f0 b3bd 7617 b43d
00000300: 2e7b 0abd 693d 88bd 6bfd c2bd 7cea 2f3d
00000310: 2bc3 2fbd 43e0 88bd 4c15 b73d 3aa8 993d
00000320: 8548 a83d 479e f23d 0cdc 043e 2307 70bb
00000330: 784b b2bc d4ad b8bd 30a9 cf3d 0ef3 193d
00000340: ba41 0939 8afb d53d 3f45 d7bd d504 e23d
00000350: 8639 38bd 4750 d4bd 6038 68bd 6b99 0c3e
00000360: 01dd 803b 154f e9bd 078d 03bd 26ca f23c
00000370: 7ab1 c03d be45 973d ad25 b6bb 756f 0b3d
00000380: ea0d cbbc 9ed7 bf3d e731 b53d be75 a5bd
00000390: 61cd 083e 1e41 053e e213 813d e365 bc3d
000003a0: fcb5 efbd b080 f53c d824 09bd 8d52 e4bd
000003b0: 3f57 f9bc c3fd 24bd 95d2 913d 7229 e03d
000003c0: c261 d63d 1b52 cf3b 77d2 0abd 5935 af3d
000003d0: a135 cfbd 9eed 073b d137 9cbd 0ea7 d13d
000003e0: ec54 a2bd bd81 05bc 3d61 39bd ea97 413c
000003f0: da1c 733c 9867 cebd af53 763d b9d3 e73d
0.011593187 0.13091424 0.040652696 -0.0076474017 0.09506553 0.04112081 -0.034982797 0.040154066
0.030442059 -0.016095376 -0.048775923 -0.06192383 -0.039331067 -0.055590708 0.034757238 -0.0044126497
0.080139585 0.07644024 0.14162712 0.10874092 0.06683567 -0.092835195 0.08065514 0.13297398
0.06048655 -0.042702813 0.07566717 0.08075988 -0.14774291 0.09490433 0.092958555 -0.13417046
-0.028336983 -0.066567585 0.002381796 0.37284276 -0.00021267065 -0.071290225 0.06911298 0.09262979
-0.017856637 0.12837832 -0.07010094 -0.10172211 -0.097556084 -0.11376821 0.071698874 -0.013355227
0.1159128 -0.073613845 -0.11326277 0.077518046 0.08533962 -0.056895778 0.07138198 -0.06194479
-0.022308612 -0.11261517 0.02550169 -0.027774282 -0.09558481 -0.10701627 -0.053615447 0.0198019
-0.06297924 -0.09119282 0.08670085 0.013388016 0.13961405 0.090949066 0.06941711 0.08331523
-0.10982624 -0.06578376 0.08120635 0.116014786 0.08119344 -0.051167607 0.096501976 -0.14346592
0.03290744 -0.03821681 0.082657054 0.12854333 0.14339843 0.11416707 0.084302105 -0.05867115
-0.030049281 -0.03485055 0.08862525 0.011767313 -0.079203956 -0.07188815 -0.028774768 0.051017888
0.111955225 0.009958544 -0.11495908 0.065960646 -0.07059457 0.07343808 0.07733591 -0.0051846183
-0.00498424 0.009264634 0.06851646 0.112461925 -0.08329892 0.0997347 -0.0073066843 0.040400203
-0.10238759 0.005066941 0.10929992 0.04119618 -0.0072309948 -0.05106277 0.020369243 0.08674819
0.12426085 -0.020597074 0.02839172 0.020223906 0.07783344 -0.06043341 0.063505895 0.013842419
-0.020778555 0.037786838 0.08068784 -0.039727543 -0.13888969 -0.02291634 -0.11591069 0.082351685
0.13452488 0.02513973 0.12221124 0.078346275 -0.04690624 0.26356927 -0.10776525 -0.09541717
-0.07561352 -0.054332457 0.012997483 0.046563905 0.1140352 -0.014420959 -0.078478366 0.030451788
-0.0033959986 -0.08446527 0.0053015235 -0.051507056 0.05404376 0.061220564 0.07939786 0.060233753
-0.03497792 0.116504386 0.0428063 0.04377481 -0.11899127 -0.034023993 0.06429359 0.12647723
-0.13660888 -0.043017443 -0.021903181 -0.063566834 -0.057633217 -0.07480872 0.027303193 0.06864264
0.029954173 0.061778385 0.009919447 -0.0010928557 0.070385605 0.005696707 0.055360388 -0.035551686
-0.08550728 0.020851264 0.082237184 -0.095496245 -0.045456514 -0.05142576 -0.08786123 0.08793537
-0.03380888 -0.06652338 -0.09520992 0.04294823 -0.042910736 -0.066833995 0.08939609 0.0750279
0.08216957 0.11846595 0.12974566 -0.0036625348 -0.021764502 -0.0901753 0.10139692 0.03758531
0.00013089823 0.10448368 -0.105112545 0.11036078 -0.044976734 -0.10366874 -0.05669439 0.137304
0.0039325957 -0.11392037 -0.032116916 0.029637408 0.09408851 0.07386349 -0.0055586905 0.03404184
-0.024786908 0.093672976 0.08847409 -0.08079098 0.13359596 0.13013121 0.063026205 0.09199121
-0.11704633 0.02996859 -0.033482403 -0.11148558 -0.03043711 -0.04028107 0.071202435 0.10945405
0.104678646 0.0063269264 -0.03389212 0.08555097 -0.10117651 0.0020740996 -0.07627834 0.10236941
-0.07926354 -0.008148608 -0.04525875 0.011816004 0.014838422 -0.10078353 0.0601384 0.1131968

layers.0.bias f4 [16]
00000000: 2476 78bd ab2f 9f3d 4040 a5bd 82f4 383d
00000010: ca70 a93b a8df 9dbd 13cb 75bd f19b bc3d
00000020: 5034 f2bd 02ee f4bd be33 a73d 77e3 a53d
00000030: ebc5 babd 25a6 d3b8 7152 d9bd 6b22 28bd
-0.060659543 0.07772764 -0.08068895 0.045155056 0.005170916 -0.07708675 -0.06000812 0.09209431
-0.11826384 -0.11959459 0.08164166 0.08100026 -0.09119781 -0.00010092211 -0.106114276 -0.04104845

layers.2.weight f4 [8, 16]
00000000: b26e 823e 6850 693e 3c86 0d3e 997b 6a3d
00000010: f680 26be afff 69be d44a d33d c6a1 833e
00000020: 461a 56bd f707 273e 5cc9 7cbd 80db 9f3b
00000030: 96a4 713e 4135 7cbe 58f2 b63d 1d08 2e3e
00000040: 7c28 55be d76b e33c d67e 00bd c920 503e
00000050: 78f2 9abd e218 883d 8073 1cbe bb70 8dbc
00000060: 7eed 853d f85b 76be fb64 e23c 0ca3 513e
00000070: 8483 8a3d 3223 8bbd 6401 3dbe d56f 303d
00000080: 5eca ab3e 9b31 1abe 45b8 c63d 1135 14be
00000090: dd13 833e d037 f33c 3f4e 12bd 3d7d 813e
000000a0: 9dfe a63d 637f 44be 4962 dd3d 0cdd 853d
000000b0: c01a 073f 8f6b fabd a875 4f3d edbb f53d
000000c0: 334b 9f3d 7166 4cbe acc5 ee3a 6717 883d
000000d0: 4109 a0bd ec4d 92be 8985 623d fb5c 433e
000000e0: 6f04 643c 42ee 26be e9cd 903d 80a1 cdbd
000000f0: 89b6 a03e 5b43 4b3e 3c9f 38be 11ff e23d
00000100: 387b 883d d0d0 8a3d 274a 23bc debc 443e
00000110: cfaa 4f3d f4cf 493e 7834 06bc 305e ae3d
00000120: b03d a73e bf74 60be 2505 8abd e8fc 7fbe
00000130: 1667 c3be ec6c 10be 4cba d3bd 1134 e13c
00000140: b468 0abe 4ac3 173e 75b9 0abe 4c68 d43d
00000150: 6fc1 31be a4e9 433e 4393 b6bd 0530 5b3e
00000160: 583e ae3d 37ef f63d 9d73 0bbe a25f 103e
00000170: 1b7c 143e e87f f7bd e039 1bbe 3dd3 d9ba
00000180: 5678 063e a291 0b3e 20fa 8dbd a833 29bd
00000190: 5d35 d03d 38ae e13d f708 ebbd 00eb fd3b
000001a0: 3317 dfbc 6718 35bd 097f b1bc 643e ecbd
000001b0: 07d5 1bbe 84f4 2cbe 3805 763d 92a1 2c3e
000001c0: d266 3e3e a073 54be 06b5 6fbe 1028 b03c
000001d0: 5e68 3a3e a071 17be f829 5b3d 447f a1bd
000001e0: 10fc 93bd cca0 e23d c89b 943d 5c62 84bd
000001f0: d08a dfbd 3e1f 21be 18ee 07bd f2d0 703e
0.2547508 0.22784579 0.13820738 0.05724678 -0.16260132 -0.22851442 0.10317007 0.2570936
-0.05227115 0.16311632 -0.06171547 0.0048784614 0.23597941 -0.2462969 0.08932942 0.16995282
-0.20816225 0.027761383 -0.03137096 0.20325007 -0.075657785 0.06645371 -0.15278435 -0.017265668
0.06539439 -0.24058521 0.027636042 0.20472354 0.06763366 -0.06793822 -0.18457562 0.0430754
0.3355283 -0.15057985 0.097031154 -0.14473368 0.25601092 0.0296897 -0.035719153 0.25290862
0.081540324 -0.19189219 0.10809762 0.06536302 0.5277519 -0.122275464 0.050649315 0.119987346
0.07778015 -0.19960953 0.001821687 0.06645089 -0.07814265 -0.28575075 0.05530313 0.19078438
0.013917073 -0.16301826 0.07070524 -0.10040569 0.31389263 0.19849913 -0.18029493 0.11083806
0.06664127 0.06778109 -0.00996641 0.19212672 0.050700005 0.19708234 -0.00819122 0.085140586
0.3266425 -0.21919535 -0.067392625 -0.2499882 -0.38164586 -0.1410405 -0.10338268 0.027490648
-0.13516504 0.1482059 -0.13547309 0.103714556 -0.17358945 0.19132096 -0.08914807 0.21405037
0.08507985 0.12057345 -0.13618322 0.14098981 0.14500467 -0.12084943 -0.15158796 -0.001661874
0.13131842 0.13629773 -0.06932473 -0.04130903 0.10166428 0.11019558 -0.11476319 0.0077489614
-0.027232742 -0.044212725 -0.02166702 -0.115353376 -0.15217982 -0.1689015 0.06006357 0.16858509
0.1859391 -0.20747232 -0.23408899 0.021503478 0.18203875 -0.14789438 0.05350682 -0.07885602
-0.072258115 0.11065826 0.072562754 -0.06464073 -0.10915148 -0.15734574 -0.03318605 0.23517206

layers.2.bias f4 [8]
00000000: ca65 56be a43c 3abc 26d1 703e 8c6b 18be
00000010: dad2 e03c 1dec 51bd 18ad 983d ecc5 08be
-0.20937267 -0.011366997 0.23517284 -0.14884776 0.027444292 -0.051250566 0.0745489 -0.13356751

layers.4.weight f4 [1, 8]
00000000: 407e e63e 2c86 aabe 30b3 183f 37ad 8f3e
00000010: 37f4 b9be e01f 20be a262 9b3e 74ee a1be
0.45018196 -0.3330549 0.5964842 0.2806184 -0.36319134 -0.1563716 0.30348688 -0.31627238
