hw2/model.ckpt (torch, 242383 bytes, 44 tensors)

fc.0.block.0.weight f4 [64, 429]
000000 89 44 ae 3e 2b 27 66 3d 2b 1b 1b 3e 89 a7 4b 3d
       0.34036663 0.056189697 0.15147083 0.04972032
000010 34 b1 12 3d af 96 15 3c b6 76 1b 3d 00 ef 2b 3d
       0.035813525 0.009130164 0.03795501 0.041975975
000020 b6 7e 35 3c 37 f5 b3 bc e0 17 00 3d bd 00 ee 3b
       0.0110775735 -0.021967513 0.03127277 0.0072632716
000030 f2 1b 09 3b ee 25 09 be 30 a7 19 be f5 03 49 be
       0.0020921198 -0.13393375 -0.15005183 -0.19630416
000040 41 11 9f bd 2b ca fb bd e4 27 2b 3c 44 da 85 bd
       -0.07766963 -0.1229442 0.010446522 -0.065357715
000050 65 2c 2c bd 63 09 58 bc 05 ae a8 bc dc 9f 80 bc
       -0.042034525 -0.013185832 -0.020590791 -0.015701227
000060 06 4a 57 bd 3b 6d 30 3c e6 b8 23 bb 20 9e 13 3e
       -0.05256083 0.01076823 -0.0024982034 0.14415789
000070 d0 32 0d 3e 09 ec d8 3d a9 7d a3 3d 3c c7 a8 3d
       0.13788915 0.10591895 0.07982952 0.08241126
000080 7b d1 85 3d fa 62 35 3d 74 19 53 3d 19 a2 98 3c
       0.06534096 0.044283845 0.051537946 0.018631982
000090 15 bf 5e 3c 1f d3 d9 bc 40 57 33 3d 2e 28 21 3e
       0.013595362 -0.026589928 0.04378438 0.15737984
0000a0 f7 50 db 3b af 74 04 3e 99 b8 a6 3d 4e 97 ac 3d
       0.0066930014 0.12935136 0.08140678 0.084272966
0000b0 a8 f2 62 ba 6a bc c1 bc bf 4b 56 bc 9d 12 b2 bc
       -0.00086573744 -0.023649413 -0.013079583 -0.021737391
0000c0 10 28 bb ba 00 d8 f8 3c 88 43 b4 3c fc e0 a2 3c
       -0.0014278907 0.030376434 0.022004858 0.019882672
0000d0 61 b8 14 bc 49 38 23 bc fa 6c c8 bd 74 3d 93 bc
       -0.0090771625 -0.00996215 -0.09786411 -0.01797364
0000e0 f8 16 c7 bd 93 58 6d bc 90 e8 a7 bd 39 6b d5 bc
       -0.09721178 -0.01448645 -0.08198655 -0.026052104
0000f0 e8 3f ae bc e1 4b 40 3c 4a 4a 46 bd 26 67 50 3c
       -0.021270707 0.011736841 -0.04841069 0.012719905
000100 d4 89 17 bd 17 44 9f 3c ca 9d d6 3c 9d 00 77 3c
       -0.036996678 0.019441647 0.026198287 0.01507583
000110 b0 79 49 3d c9 d5 de 3c 16 43 10 3d b9 bc 5a bc
       0.049188316 0.02720155 0.035220228 -0.013350659
000120 c9 27 9f 3c 15 df 65 bc 89 f7 66 3c 16 12 02 3d
       0.01942815 -0.014030238 0.014097103 0.03175553
000130 61 87 22 3c 40 21 e9 3c 6e 80 ad 3d 0c e0 28 3d
       0.009919972 0.028458238 0.08471762 0.041229293
000140 25 5a e8 3d 18 a4 06 3d 32 a7 0b 3d c0 46 71 3c
       0.11345319 0.032871336 0.034094997 0.014726341
000150 07 9d 84 3c 87 6b 55 3c 6a 4a 9c bc 24 93 e5 bc
       0.016188158 0.013026125 -0.019078452 -0.028024264
000160 fa 95 6e 3b fb 34 8c bc 7d 28 f1 b9 fb ed 5b bd
       0.003640531 -0.017115107 -0.00045997268 -0.053693753
000170 8d 0c 3b bd 37 66 01 bd 97 1c 02 bd 25 6d 86 bd
       -0.045666266 -0.03159162 -0.031765547 -0.065637864
000180 f1 5c d6 bc c4 94 9d 3b 32 dc 10 bb 5f 9b ac bb
       -0.026167365 0.004808994 -0.0022103903 -0.005267545
000190 69 b3 48 bc 85 ab 9a bc f9 8b 71 bd 66 d7 ad bc
       -0.012249806 -0.018880615 -0.05897138 -0.021220874
0001a0 29 13 7f 3d 7d 9f e3 3d 26 94 39 3c 56 0f 0d 3d
       0.062274132 0.11114404 0.011326825 0.034438454
0001b0 f3 33 8d 3d 09 05 de 3c 2a d8 25 3d d1 23 27 3d
       0.06894674 0.02710201 0.040489353 0.04080564
0001c0 52 df 71 3d 37 d5 53 3b ae 5e c1 3c 39 df f5 3b
       0.059050865 0.003232313 0.023604717 0.007503417
0001d0 9a 2a 8a bc 1a 26 fb bd 80 fb 93 3d 05 e3 a4 ba
       -0.016866017 -0.12263127 0.07225704 -0.0012579864
0001e0 51 06 6b 3d 35 7d d7 3c c9 e8 e4 3c ad f1 c9 bc
       0.05737907 0.02630482 0.027943032 -0.024651373
0001f0 e3 3b 16 bd f6 a1 87 bc 88 00 56 bc 59 a5 29 3c
       -0.036678206 -0.016556721 -0.01306165 0.010354363
000200 bd 43 e7 3c fe f2 0d 3b 27 00 fa bb c8 7d 61 3d
       0.028230542 0.0021659727 -0.0076294127 0.055051595
000210 3b d7 29 3d 4d 51 6f bd 30 cb 98 bb 2d b4 16 3d
       0.041465025 -0.058427144 -0.0046628937 0.036792923
000220 16 3e 00 3d 96 93 03 3b 2d 94 50 bc 30 dc d8 bc
       0.03130921 0.0020076982 -0.01273064 -0.026472181
000230 1f 62 98 3b 90 aa ae 3c f3 fd 55 bb 70 f1 81 3b
       0.004650369 0.021321565 -0.0032652586 0.003965549
000240 c7 cb 19 3d 13 12 51 3d 5f 55 ee 3c a0 2c 10 bc
       0.037547853 0.051042628 0.029093442 -0.008799702
000250 05 82 8c bc f7 74 63 3c f7 c9 bb bc 12 2c 8a bc
       -0.017151842 0.013882867 -0.022923453 -0.016866717
000260 74 53 27 bd 8f 53 76 3c 31 b0 bf bc 8d 25 72 bb
       -0.04085107 0.01503457 -0.023399444 -0.0036948652
000270 b0 ae 91 be 45 40 e2 3d 97 50 23 be d9 8d ac bc
       -0.28453588 0.11047415 -0.15948711 -0.021063732
000280 b9 93 c3 bc c9 59 93 3c d7 a1 d0 bc fc a3 c8 3b
       -0.02387415 0.017987149 -0.025467796 0.006123064
000290 7e fd 97 3a 33 91 2c bc c6 06 98 bc 25 aa 9e 3c
       0.0011595932 -0.010532665 -0.018557917 0.01936824
0002a0 05 6a c4 3c 4f 92 8d 3d d5 b8 ad 3d ef 84 15 3e
       0.023976335 0.06912672 0.084825195 0.14601491
0002b0 f7 e8 0e bc b6 6f 4c 3d 5a c6 74 bc 56 33 01 3c
       -0.008722535 0.049911223 -0.014939869 0.007885775
0002c0 9a 08 4f bc 89 4e 52 3d 10 f1 8b 3c a9 85 bd bc
       -0.012636328 0.05134443 0.017082721 -0.023135023
0002d0 28 d3 03 bd 5b df e0 3c fa 90 0b bd f7 9e 04 be
       -0.032183796 0.027450254 -0.034073807 -0.12951265
0002e0 d8 62 71 bd 8a 90 a8 bd 22 07 00 3c bb df 98 bb
       -0.058932155 -0.08230694 0.007814201 -0.0046653426
0002f0 49 e5 a9 bd 99 7b a7 bc e5 ef ac bc 84 8b af bc
       -0.08295686 -0.020444678 -0.021110484 -0.02142883
000300 28 c4 ca 3c c0 3c 32 bb e1 5f f7 3a 6e 10 c9 be
       0.024751738 -0.0027196854 0.0018873179 -0.39270347
000310 0b d6 23 bd 3f 8d 57 be 25 4a e8 bd f1 61 b0 bd
       -0.03999905 -0.21049975 -0.11342267 -0.08612431
000320 91 2d b2 bc c3 a5 5b bc 61 30 98 bc a9 4b 23 3c
       -0.021750243 -0.01340622 -0.018577756 0.009966769
000330 02 44 5d 3c 3b ee ee bc 41 be db bb e8 03 ce bc
       0.013504984 -0.029166332 -0.0067060296 -0.025148347
000340 b9 19 35 3e 16 01 44 3e 16 55 2c 3e 53 9b ac 3c
       0.17685594 0.19141039 0.16829333 0.021070158
000350 57 bf 0b 3e a0 df 8e 3d 5a f1 3c 3c 8a 17 bb bb
       0.13647209 0.06976247 0.011532152 -0.005709593
000360 71 8a 65 3c fe f0 9a 3c 7d 52 9b bb 3a d9 94 3c
       0.014010058 0.018913742 -0.004740058 0.018169988
000370 e8 c2 9d bc 1d b9 e2 3b e0 ca d2 bd 6d cc 3a bd
       -0.019257978 0.00691904 -0.102926016 -0.045605112
000380 39 d1 67 bd db c4 ba bb ef 31 ca bc 3f aa 54 bd
       -0.056596015 -0.0056997365 -0.024682013 -0.05192017
000390 d2 15 76 3b cf 6b 44 bc c4 c1 68 3b fe 6b 02 bc
       0.0037549627 -0.011988594 0.0035515884 -0.007960318
0003a0 6e 88 07 3c 7a 2a 27 3d 23 06 29 be c1 cf e7 bd
       0.0082722735 0.040811993 -0.16506247 -0.11318923
0003b0 bd 8f fb bd ef 2c 9f bd 45 0a ac bd 6a 04 7c bd
       -0.12283275 -0.07772242 -0.08400396 -0.061527647
0003c0 0a 6d dc bb c8 cc 89 bc e1 15 b0 3b 31 f9 12 3d
       -0.0067268657 -0.01682128 0.005373702 0.03588218
0003d0 c2 13 ba 3b 25 9b 55 3c 90 61 6e bd 41 0c df 3c
       0.005678625 0.013037478 -0.05819851 0.027227523
0003e0 9d 07 4b 3d f5 45 05 3e ef bc a7 3d 29 21 90 3d
       0.049567807 0.13014968 0.08190333 0.07037575
0003f0 1e 7a 81 bc ab c7 2a 3d 6f 5a 23 3c 71 d3 31 3d
       -0.0158053 0.041694324 0.0099702915 0.043414537

fc.0.block.0.bias f4 [64]
000000 e0 a2 c2 bb e0 7e 13 bb b0 50 bf bc af ff 23 3d
       -0.0059398264 -0.0022506043 -0.023353904 0.04003876
000010 00 d8 2b bd f1 b6 8b 3b d5 62 a9 3c 49 95 52 3c
       -0.04195404 0.0042637517 0.02067701 0.012852975
000020 d8 0a 2c bd 9b 86 8d 3c f4 7c 47 3d 53 c8 c8 3c
       -0.04200253 0.017276099 0.04870315 0.024509585
000030 19 a9 41 bc 58 61 33 3d 8c 16 96 bc 52 26 9f 3b
       -0.011820101 0.043794006 -0.018321298 0.004856863
000040 3b 8c b3 3c 73 a6 f2 bc 9c 3b db bc c7 e3 1d 3d
       0.021917453 -0.029620385 -0.026761822 0.038547304
000050 d5 83 cf 3c c8 a0 0b bd 2a f8 c4 bc 15 90 e5 bc
       0.025331417 -0.03408888 -0.024044115 -0.028022805
000060 82 83 61 3d 1f 96 2f 3d ff 3d 3b bd f7 b4 40 bd
       0.055057056 0.042867776 -0.04571342 -0.04704758
000070 78 30 0b 3d 39 89 08 bd d6 66 5f bc f9 2b 29 3d
       0.03398177 -0.03333399 -0.013635358 0.0413017
000080 a2 20 84 bc 06 bc 8e bc 2e 5e 22 3c 56 9a 32 3d
       -0.016128842 -0.017423641 0.0099101495 0.043604217
000090 3a 7f 09 bd ea 30 8e bc 87 a5 b6 bc 8d 98 99 bc
       -0.0335686 -0.017357308 -0.022295726 -0.0187495
0000a0 44 1c 65 bc 7d 94 7a 3c 53 cb 17 3c c3 34 58 3c
       -0.01398379 0.015294191 0.009264785 0.013196173
0000b0 4a e2 3d 3c 99 d1 2e 3c a4 15 c1 3c 94 01 e9 3c
       0.011589596 0.010670089 0.02356989 0.028443135
0000c0 34 88 3a bb af e3 b3 bc 67 68 78 b8 96 0d 11 3c
       -0.002846253 -0.021959154 -5.922504e-05 0.008853337
0000d0 bf 81 90 bc 08 54 17 bd e8 a6 63 bc fe 42 09 bd
       -0.017639993 -0.036945373 -0.013894774 -0.033511154
0000e0 82 80 9d 3c 92 40 f9 bc 33 42 62 bc f1 90 46 3b
       0.019226316 -0.030426297 -0.013809728 0.0030298794
0000f0 3a 3c 5d bc d8 c7 f4 ba d5 8e bd 3c dc 48 a4 3b
       -0.013503129 -0.0018675281 0.023139397 0.0050135683

fc.0.block.1.weight f4 [64]
000000 5d bd 3a 3f b0 9c 44 3f 42 a5 47 3f fc 78 3f 3f
       0.72945195 0.76801586 0.7798654 0.7479398
000010 43 fb 47 3f bd 56 5d 3f 65 cf 51 3f 4f 88 3d 3f
       0.7811777 0.8646048 0.81957084 0.74036115
000020 a0 82 1f 3f 1d bb 60 3f be 91 45 3f d7 ca 58 3f
       0.6230869 0.8778551 0.7717551 0.8468451
000030 8d 7b 59 3f ef 6a 3e 3f 42 c9 3b 3f 05 7c 54 3f
       0.8495415 0.7438192 0.7335397 0.8300174
000040 1b 7a 40 3f e6 63 38 3f 64 09 3f 3f aa d7 69 3f
       0.7518632 0.7202743 0.74623704 0.913447
000050 93 7c 5a 3f 65 35 56 3f 26 72 43 3f 5b 6b 3a 3f
       0.85346335 0.83675224 0.7634605 0.7282006
000060 e9 b9 27 3f 2d d0 5b 3f bf 9c 66 3f 07 0d 2f 3f
       0.6551805 0.85864526 0.90082926 0.68379253
000070 04 86 21 3f 84 37 18 3f 35 68 4a 3f c1 e9 40 3f
       0.63095117 0.5945971 0.7906526 0.7535668
000080 a0 22 34 3f 27 2f 12 3f 03 1c 4a 3f 16 10 51 3f
       0.70365334 0.571032 0.7894899 0.8166517
000090 e8 91 58 3f cd 6f 4a 3f 75 05 2d 3f a5 c8 37 3f
       0.84597635 0.79076844 0.6758645 0.71790534
0000a0 15 73 5a 3f 54 3d 5d 3f e4 96 46 3f 6c 3b 55 3f
       0.8533185 0.86421704 0.7757399 0.83293796
0000b0 23 79 41 3f 68 1e 08 3f f2 4c 43 3f 12 f8 4f 3f
       0.75575465 0.53171396 0.76289284 0.812379
0000c0 85 6c 40 3f 7b 2c 35 3f ad 63 16 3f 6d b3 46 3f
       0.7516559 0.70770997 0.58745843 0.7761753
0000d0 79 9b 29 3f df 28 52 3f 55 9a 2a 3f 8d 76 49 3f
       0.6625286 0.82093614 0.6664174 0.7869652
0000e0 5d 21 21 3f 4a 80 54 3f cc b5 25 3f 0c 1d 46 3f
       0.62941533 0.83008254 0.64730525 0.7738807
0000f0 f0 24 5e 3f 5b cb 52 3f b8 c4 29 3f 05 dc 3a 3f
       0.8677511 0.82341546 0.66315794 0.72991973

fc.0.block.1.bias f4 [64]
000000 09 fc 4c bf 68 6e 6e bf 36 51 b8 be b8 ca ec be
       -0.80072075 -0.93137217 -0.3599946 -0.46248412
000010 48 64 55 bf 94 6e 01 bf 93 68 d2 be a6 e8 7f be
       -0.8335614 -0.50559354 -0.4109541 -0.24991092
000020 50 c6 35 bf 27 d1 2f bf f4 57 12 bf ad 91 2a bf
       -0.71005726 -0.68678516 -0.57165456 -0.66628534
000030 54 8d 30 be 7a fd 1f bf a5 26 06 bf 81 59 5d bf
       -0.17241412 -0.6249615 -0.52402717 -0.864647
000040 3c d6 7a bf 6b 31 c7 be 75 e2 3d 3e 06 66 99 be
       -0.97983146 -0.3890489 0.18543418 -0.2996065
000050 74 e6 f6 be 20 7a 07 bf 70 67 06 bf 5c cb ec be
       -0.48222697 -0.5292072 -0.52501583 -0.462489
000060 c4 79 74 bf 50 ad 04 bc 5e 79 0e bf 08 c1 44 bf
       -0.954983 -0.008097962 -0.5565394 -0.7685704
000070 4d 83 81 bf fd 5f 56 3e b7 c8 5a bf e2 46 40 bf
       -1.0118195 0.20935054 -0.85462517 -0.7510816
000080 7d 64 14 bf 47 13 27 3e 48 87 71 bf be c3 50 bf
       -0.5796583 0.16315947 -0.9434705 -0.8154868
000090 31 99 ea be 45 01 f2 be e2 87 ab 3d 53 d1 4e bf
       -0.4582 -0.47266594 0.08375527 -0.80788153
0000a0 c1 f0 0e bf b4 d9 83 be 90 1d 85 bf 41 e1 2c bf
       -0.5583611 -0.25752032 -1.0399647 -0.6753121
0000b0 97 5a 75 bf 6d e8 99 3e ce 82 46 bf 42 9d 12 bf
       -0.95841354 0.3006014 -0.7754334 -0.57271206
0000c0 f5 12 68 bf 8b 96 28 bf 85 35 48 3e 6c a4 15 bf
       -0.90653926 -0.6585471 0.19551666 -0.5845401
0000d0 ba 97 87 3e e2 09 4d bf a0 63 94 bd 42 b2 18 bf
       0.26482946 -0.80093205 -0.072455645 -0.59647
0000e0 5c 28 55 bf 9d d3 a1 bd 92 41 59 3e 7c dc 22 bf
       -0.8326471 -0.0790169 0.2121642 -0.6361768
0000f0 26 87 23 bf bf 2c 02 bf 33 50 73 bf fd 3d 83 3d
       -0.63878095 -0.5084953 -0.9504425 0.06408308

fc.0.block.1.running_mean f4 [64]
000000 14 bc c9 bb cf de 0c 3d b7 e1 3c bd bd c6 5a 3d
       -0.006156454 0.034392174 -0.046113696 0.053412188
000010 72 80 b2 bb c6 0e be 3c 37 e3 9b 3c 35 cc b4 3c
       -0.005447441 0.023200404 0.019029243 0.02207003
000020 7d 86 25 bd 77 f9 34 3d 04 d9 4d 3d 09 de 33 3d
       -0.04041146 0.04418322 0.05025579 0.04391292
000030 94 ce 8d 3c 99 29 50 3d 33 57 68 bc 6d 76 0a 3c
       0.017310418 0.05082092 -0.014180946 0.0084510865
000040 63 99 52 3d 1e af b4 bc d9 19 a9 bc ee 0e 8c 3d
       0.051415812 -0.022056159 -0.020642208 0.06838785
000050 95 95 bb 3c b5 4d 29 bd 41 4c dd bc c7 8e c3 bc
       0.022898475 -0.041333873 -0.0270139 -0.023871792
000060 ce c5 87 3d f5 77 b2 3c f1 30 3a bd 1a 4f 32 bd
       0.06629525 0.021785716 -0.04545683 -0.04353247
000070 9d e7 06 3d d5 2d 8d bc fb b9 0b 3c 32 b8 c5 3c
       0.032935727 -0.017233768 0.008528228 0.024135683
000080 be bf 86 bc 24 d4 f9 bc ce 9a 85 3c 72 31 88 3d
       -0.016448852 -0.030496664 0.016309168 0.06650056
000090 b4 1b 09 bd ed 69 23 bc b3 92 5e bc 2d 5e f7 bc
       -0.033473685 -0.009973985 -0.0135847805 -0.030196274
0000a0 2e 02 0e ba ad ed d9 3c a4 39 09 3d 15 ca 23 3d
       -0.0005417195 0.02660259 0.033502236 0.039987642
0000b0 c0 c8 f6 3a 69 e0 2a 3c ae b9 56 3b b9 42 2c 3c
       0.0018828139 0.01042948 0.0032764482 0.010513955
0000c0 b9 c3 61 3c 32 c7 6e bc 8a b3 b7 3c b3 b1 9d 3c
       0.013779574 -0.014573859 0.022424478 0.019249773
0000d0 27 bf 52 bc 05 cd b8 bc c2 c9 40 3b b5 07 35 bd
       -0.012862957 -0.022558698 0.0029417132 -0.044196803
0000e0 95 5c 05 3d 93 03 42 bd 64 87 41 3a 5b 38 ae 3c
       0.032558996 -0.04736669 0.00073825405 0.021267107
0000f0 8a a6 3a 3c 25 8d 3b bb ca e8 1a bc 01 bd 85 3a
       0.011392245 -0.0028618064 -0.009454915 0.0010203422

fc.0.block.1.running_var f4 [64]
000000 44 55 80 3f 72 e9 b8 40 c3 4a 15 40 18 bb 00 40
       1.0026021 5.7784967 2.332688 2.0114193
000010 92 5c 94 40 c4 c4 61 40 99 ec 6b 40 8a 38 e6 3f
       4.6363 3.5276346 3.6863158 1.7986004
000020 91 82 fa 3f f1 3e 94 40 b0 60 50 40 59 0b 61 40
       1.9571096 4.6326833 3.2559013 3.5163176
000030 33 b3 a5 40 b4 f4 0d 40 a8 c8 66 3f 2e fc 4f 40
       5.178125 2.2180605 0.9014993 3.2497668
000040 c1 57 4c 40 cd 9c ee 3f ee 79 9c 40 06 c6 b5 40
       3.192856 1.8641602 4.889884 5.680423
000050 96 c4 48 40 fb 0b 92 40 21 5f 0a 40 c5 fc 1c 40
       3.1369987 4.5639625 2.1620562 2.4529278
000060 fd ee 25 40 8f d0 82 40 f2 1f 70 40 47 d3 17 3f
       2.5927117 4.087959 3.7519498 0.5930676
000070 d4 24 39 40 a4 27 29 40 43 4a 86 40 59 09 81 40
       2.8928728 2.6430445 4.196565 4.032391
000080 33 ac 3c 40 29 47 35 40 3e 29 39 40 10 46 8d 40
       2.9480102 2.8324683 2.8931422 4.4148026
000090 80 8e 86 40 68 b9 02 40 c4 fb fa 3f 70 f0 38 40
       4.204895 2.0425663 1.9608083 2.8896751
0000a0 91 70 62 40 ce 5e 47 40 26 49 57 40 28 93 94 40
       3.5381205 3.1151614 3.3638396 4.6429634
0000b0 68 d8 42 40 68 a4 4f 40 17 ae 49 40 1d ac 4f 40
       3.0444584 3.2444096 3.1512506 3.24488
0000c0 5e 04 38 40 19 34 59 40 cf ad 64 40 69 8a 69 3f
       2.8752666 3.3938048 3.5731084 0.9122682
0000d0 23 13 50 40 e5 38 86 40 77 ae 36 40 69 33 af 3f
       3.251168 4.194445 2.8543985 1.3687564
0000e0 39 25 1b 40 c2 26 85 40 c0 a3 49 40 7d 65 84 40
       2.424147 4.160981 3.1506195 4.1373887
0000f0 ef ec 89 40 56 76 0a 40 fd 1d 8c 40 2a 90 81 40
       4.3101726 2.1634727 4.3786607 4.048848

fc.1.block.0.weight f4 [64, 64]
000000 b5 bf 58 3d 9d f6 06 be 42 d5 64 3d 83 a3 14 3d
       0.0529172 -0.13180013 0.05586744 0.03628875
000010 6b 5a 38 bd fd d4 78 be a9 c4 6a 3c d1 0f 47 bc
       -0.045008104 -0.24299999 0.014329114 -0.012149767
000020 7b 5d 50 3d ed 24 fd bd b2 87 89 3d 38 83 a1 bd
       0.0508704 -0.12360559 0.06715335 -0.07886356
000030 4b 8b 4e be 0d 85 ad be 8d 25 02 3c a7 1d f8 bd
       -0.20170324 -0.33890572 0.007943523 -0.12115031
000040 2f 36 08 be 8f 26 ab 3b bd 49 eb bc e3 6a 5f be
       -0.1330192 0.0052231024 -0.028721685 -0.21818118
000050 d4 d7 2a 3d 63 b0 34 3d c3 e3 a3 3d 0b 5a ce 3d
       0.041709736 0.044113528 0.080024265 0.10075768
000060 09 e0 29 3d a6 52 96 3a 67 d9 25 bd 2a fd 99 3d
       0.041473422 0.0011468723 -0.040490534 0.0751899
000070 0b 90 d0 be c2 45 12 ba 16 7a 0e be 60 49 8c 3d
       -0.40734896 -0.0005579853 -0.1391376 0.06849933
000080 40 c7 70 be 08 17 14 3d 4b e8 1f be 3d 94 12 be
       -0.23513508 0.036154777 -0.15615956 -0.14314361
000090 a2 3d 41 3d 74 1b b2 3d 1b 6a bd 3c c5 b3 4c bb
       0.04717792 0.086966425 0.023121884 -0.003123508
0000a0 2a 80 8f bd 4f 5e ff bc a9 a0 8e 3c e3 96 64 be
       -0.07006867 -0.0311729 0.017410593 -0.22323184
0000b0 35 1f c8 bd e4 7b fb 39 30 be 20 3d b7 b2 e9 3d
       -0.09771577 0.00047966756 0.039243877 0.1141104
0000c0 54 ff a3 bb 9a b4 b5 3d 6b 90 e8 3c 11 c0 c7 3b
       -0.0050048027 0.08872338 0.028389176 0.006095894
0000d0 57 cb a2 bb db e7 04 be e2 b0 41 bc e8 7c 02 3d
       -0.0049680877 -0.12979071 -0.011821957 0.0318574
0000e0 9a ab 3d 3d 64 cb d4 bc f6 f2 22 bd 4a ca bc bc
       0.04630623 -0.02597589 -0.039782487 -0.023045678
0000f0 86 51 98 bd e6 b4 2a 3d eb 64 1c 3e 87 cb 9a bb
       -0.07437424 0.041676424 0.15272872 -0.0047239694
000100 be a3 2b bd 74 bb f1 bd 06 d4 c8 3d 49 32 4c bc
       -0.041904204 -0.11803332 0.09806065 -0.012463161
000110 c7 0a 46 3c 1a 7c 8c 3d ef 75 af 3d 0c ff c8 bc
       0.01208753 0.06859608 0.08567416 -0.024535678
000120 da be 9d bc 76 a2 fd 3b 6e 21 bf bc 06 2e 59 b9
       -0.019256044 0.007740314 -0.02333137 -0.00020711878
000130 1b 9d aa bb 10 e5 42 3e ff 23 da bb 32 20 1e bc
       -0.0052067167 0.19032693 -0.006657123 -0.009651231
000140 6d 4a e1 3e 95 b9 10 3c 32 28 d8 3d d8 3f 16 3c
       0.44002095 0.008833309 0.10554542 0.009170495
000150 a9 37 d3 3b b9 cc 45 3c f1 d4 87 ba c1 ff 8a bc
       0.006445844 0.0120727355 -0.0010363144 -0.016967656
000160 aa 8b ea bc 7d 52 13 3e 58 16 d0 3c 75 cc 94 bc
       -0.02863105 0.14386936 0.02540128 -0.018163899
000170 de a5 0c 3e 0e 07 04 3d ab 1d c9 bd 7d 0f e8 3d
       0.13735148 0.03223329 -0.09820112 0.11331079
000180 c3 e6 77 3c da 4e 4c 3c 62 7b e5 bc 84 61 b3 bd
       0.0151307015 0.012469972 -0.028012935 -0.08758834
000190 5f 2b 25 3d e4 89 19 bc 53 63 1a 3c 24 f2 8b 3d
       0.040324565 -0.009371255 0.009423095 0.06833294
0001a0 5e 89 0a 3e cb ee bb ba e6 60 a7 be 61 95 81 bd
       0.13528964 -0.0014338134 -0.32691115 -0.0632732
0001b0 3f 0f 1a bd 51 22 b6 3c d9 5e 0a 3d f0 65 16 bd
       -0.037612196 0.02223316 0.03378186 -0.03671831
0001c0 5a 21 43 bd 60 4d fd bc 1c 70 6a bb b1 b8 41 bc
       -0.04763923 -0.030920684 -0.0035772389 -0.011823819
0001d0 62 62 be be 1f f2 82 bc 97 db 36 3a f8 3d 61 bb
       -0.37184435 -0.015984593 0.00069754705 -0.0034369212
0001e0 e8 4d a7 bc 1f e9 95 3d c9 20 d0 3d 9d a9 e9 bc
       -0.02042289 0.07319855 0.10162503 -0.02852326
0001f0 a6 3e 81 3d 79 bf d6 bb bf 65 d3 3d 76 fd 46 3d
       0.06310777 -0.006553587 0.10322141 0.048581563
000200 b8 34 00 3d 98 d3 6a be 80 03 2b 3d 93 fe 17 3d
       0.031300277 -0.22932279 0.041751385 0.037108015
000210 e2 0c 28 be d9 cf 5e be 44 ec ca 3c 49 e1 a0 bb
       -0.16411164 -0.21758975 0.024770863 -0.0049096686
000220 8b 92 3e 3d 0c 02 5b be 87 c3 8f 3d be 91 2b be
       0.046526473 -0.213875 0.07019716 -0.16754815
000230 82 6f 5f be 76 b1 64 be 2a 17 e8 3b bc 02 40 be
       -0.2181988 -0.22333321 0.0070828395 -0.18751043
000240 58 e9 81 be d8 32 2e 3b de 99 71 bc ce 6a 68 be
       -0.2537334 0.0026580598 -0.014746157 -0.22696993
000250 f6 d0 f8 3c 12 ed 44 3d 2f 75 7b 3d a5 62 ae 3d
       0.030373078 0.04807765 0.06139105 0.08514909
000260 8a b8 1f 3c 2b 7b 82 3c 53 ab 74 ba e0 2f 80 3d
       0.009748587 0.015927872 -0.00093333906 0.062591314
000270 f2 60 85 be 26 b6 85 3c 76 11 53 be 70 9f a4 3c
       -0.26050526 0.016322207 -0.2061213 0.020095557
000280 36 66 66 be 67 5b 0c 3d 0f 1c 71 be 78 26 59 be
       -0.22499928 0.034266856 -0.2354586 -0.21206081
000290 bd 9e 22 3d 7f aa 90 3d ba b2 8b 3c 9d 93 a7 3c
       0.039702166 0.070637695 0.017052997 0.02045613
0002a0 2d 53 6c bc 7a ab 25 bd 3e c7 36 be 0a 7d 8c be
       -0.0144241275 -0.040446736 -0.17849442 -0.27439147
0002b0 21 ba 18 be d0 15 d4 ba 8a 0e 93 3d 98 0a 94 3d
       -0.14914753 -0.0016180817 0.071805075 0.07228583
0002c0 06 8d d9 3d 2d d3 9f 3d 5c e0 fd bb d3 c6 2e 3c
       0.10622601 0.078039505 -0.007747693 0.010667521
0002d0 00 bb 5b 3c bc f3 41 be 84 5d 53 bc 9e 76 80 3c
       0.0134112835 -0.18940634 -0.012900714 0.015681561
0002e0 a1 a8 a8 3b 0b 34 bf bb df 68 93 bc 2f 87 13 bd
       0.0051470553 -0.0058350614 -0.017994342 -0.036017593
0002f0 e9 6f 43 be a4 6a 25 3d dd b0 f5 3d 90 42 1e 3c
       -0.19085659 0.040384904 0.119966246 0.009659424
000300 a4 10 7c 3d a2 88 a4 be f3 8b 0a bc 3d f3 b0 bc
       0.061539307 -0.32135493 -0.008456218 -0.02160036
000310 cb 77 f3 be d3 0f 46 be 3f 8d a7 3c 85 0a 54 3d
       -0.47552332 -0.19341974 0.020453094 0.051767845
000320 d2 da 90 bc 4f 3f 80 3d e3 43 1a bb 8c d2 82 3d
       -0.017682467 0.06262075 -0.0023538999 0.06387815
000330 68 3d 03 bd 69 e4 58 be a5 f0 2b 3c 4e 1f 66 3d
       -0.032040983 -0.21180882 0.010494386 0.0561822
000340 e2 f2 85 be 3b 8f 7d 3d 57 da 0c bc 23 74 02 bd
       -0.26161867 0.061904173 -0.008596978 -0.031849038
000350 52 3c 40 bd ea 46 8f bd aa 58 41 bc ad 76 a8 3b
       -0.046932526 -0.06995948 -0.011800924 0.0051411004
000360 a9 a7 87 be 09 da 22 bb c5 15 c2 3d 26 11 81 3d
       -0.26495102 -0.0024849197 0.094768085 0.06302099
000370 e3 e9 51 be 97 36 0a bc b3 ca 89 be 8b de 2c be
       -0.20499377 -0.008435867 -0.2691246 -0.16881768
000380 31 79 2d bc 7e ac 50 3b 5a 5b 61 3d fd f5 44 be
       -0.010587976 0.0031841095 0.05501876 -0.19234462
000390 8d 77 fc 3d 0c a4 c6 3b d5 95 87 bb 46 04 1a be
       0.1232749 0.0060620364 -0.0041377344 -0.15040693
0003a0 cb 8c 89 3d 72 15 9b 3d 1c ef d2 be 59 c9 3a bd
       0.06716307 0.0757245 -0.4119805 -0.045602176
0003b0 72 38 a7 3d 9c dd 22 3c f3 db c9 3d ad a7 ae 3c
       0.08165063 0.009940531 0.09856405 0.021320188
0003c0 8d 56 9f 3d 6e 4b 19 bc 25 33 7a 3d 9b 0e ef 3b
       0.0778018 -0.009356363 0.06108393 0.0072954423
0003d0 2f a1 d0 bb 58 39 6d 3d f0 0c fe 3c be 4b ad 3d
       -0.006366871 0.057916015 0.031012028 0.08461712
0003e0 04 61 61 be 07 0b 9a 3b 38 c4 81 bc f0 59 4e bd
       -0.22009665 0.0047010216 -0.015840635 -0.05037874
0003f0 91 e8 a0 be 09 85 98 bb ec 97 51 be 5d 9e 4b 3c
       -0.31427434 -0.004654531 -0.2046811 0.0124278935

fc.1.block.0.bias f4 [64]
000000 24 34 17 bd 09 a0 db bd 8b 40 01 be ba 7f 21 bc
       -0.03691496 -0.10723884 -0.12622277 -0.009857113
000010 14 05 3c bd ca 9e e0 bd fc 1b f0 bc 82 80 9b bd
       -0.04590328 -0.109677866 -0.029310219 -0.0759287
000020 fe 2e d3 bc 37 21 a7 bd c2 09 b3 bd 8b 17 03 3d
       -0.025779244 -0.08160632 -0.087420955 0.032004874
000030 21 fa 07 be b2 88 a1 3d 19 0b bc bd b3 f9 94 bd
       -0.1327901 0.07887401 -0.09181804 -0.07274189
000040 aa f7 b4 bc 45 ff bc bd b6 b1 af 3d f7 7f 02 be
       -0.022090752 -0.09228376 0.085788175 -0.12744127
000050 c9 d9 7e 3d 88 f5 d1 bd 39 5b cb bd 81 fa 33 bd
       0.062219415 -0.102519095 -0.09929509 -0.04394007
000060 89 dc c6 3b 6b 63 9c bb cf 7e c3 bd 2b cb fc bc
       0.0060687703 -0.0047725937 -0.09545671 -0.030858597
000070 06 2c a6 bc 4c d3 f4 bd a4 7b d4 3d e7 ed b3 bd
       -0.020284664 -0.11954364 0.10375145 -0.08785611
000080 13 2e 97 bd 2f f2 8b 3c 1f 91 5f 3d 06 69 c7 bd
       -0.07381835 0.017083256 0.054581758 -0.097368285
000090 0e d1 a3 bc ee 03 00 be 89 f3 4e bc 3f 1a a9 bc
       -0.019997146 -0.12501499 -0.0126313055 -0.020642398
0000a0 7c 8d 27 3c c2 61 3b bd eb 57 92 bd 77 3e 35 3d
       0.010226604 -0.045747526 -0.07145675 0.044249024
0000b0 07 9c 05 be 7c 40 6c 3d 95 81 b3 bc b9 5b 09 bb
       -0.13047801 0.057678685 -0.021912375 -0.0020959212
0000c0 a3 df a3 3d ba 41 5c bc 1b c2 03 3d 7b 06 9f bd
       0.0800164 -0.013443405 0.032167535 -0.07764908
0000d0 e3 ee 38 bd 05 15 76 3d 42 27 c8 3d f2 d7 13 3b
       -0.045149695 0.06007864 0.09773113 0.0022559133
0000e0 91 74 3c bb bd ce d7 3d b4 39 e9 bc 9e 1f b9 3d
       -0.0028756002 0.10537479 -0.028469898 0.090392336
0000f0 31 01 43 bd 2f 28 43 3d 8a e3 86 3c 0d 9e b2 bd
       -0.047608558 0.047645744 0.016465921 -0.08721552

fc.1.block.1.weight f4 [64]
000000 b4 d1 74 3f c0 8a 27 3f fd fe 73 3f fb 2a 63 3f
       0.9563248 0.6544609 0.95310956 0.8873746
000010 91 28 7e 3f f7 bf 66 3f 9e 24 7a 3f a7 63 59 3f
       0.9928065 0.90136665 0.97712123 0.8491768
000020 14 b9 37 3f 14 44 4f 3f eb d5 6e 3f 6d e9 5f 3f
       0.7176678 0.80963254 0.9329516 0.87465554
000030 dc f4 53 3f 5f db 43 3f f6 76 62 3f a7 61 26 3f
       0.827955 0.7650661 0.8846277 0.64992756
000040 0f b6 56 3f e2 b7 61 3f 91 98 80 3f 15 35 6e 3f
       0.8387155 0.8817121 1.004656 0.93049747
000050 be d9 4f 3f 91 ac 67 3f 98 92 53 3f 97 d2 58 3f
       0.81191623 0.9049769 0.8264556 0.84696335
000060 ab 66 66 3f bf 51 79 3f c1 6b 37 3f e9 3a 4b 3f
       0.9000041 0.9739036 0.71648794 0.79386765
000070 35 e3 56 3f b1 0e 5a 3f ae af 68 3f bd 0e 53 3f
       0.8394044 0.8517867 0.90893066 0.82444364
000080 4a 09 61 3f 2b 5c 2c 3f 09 1f 7e 3f 0d 44 75 3f
       0.879048 0.6732814 0.99266106 0.9580696
000090 e1 19 56 3f 58 43 59 3f f5 22 7c 3f 71 ce 73 3f
       0.8363324 0.84868383 0.9849084 0.9523688
0000a0 3a 55 7f 3f 27 a6 72 3f d9 b8 63 3f bb 59 60 3f
       0.9973942 0.9478478 0.8895393 0.8763692
0000b0 c2 07 65 3f 90 35 6f 3f 52 28 6d 3f fb fb 52 3f
       0.8946496 0.93441105 0.9263965 0.8241574
0000c0 b7 b3 73 3f 9f 6e 4d 3f 3d f5 7d 3f d6 a4 29 3f
       0.951961 0.8024692 0.9920233 0.66267145
0000d0 c0 1e 53 3f b9 70 54 3f f8 63 59 3f 28 04 5b 3f
       0.82468796 0.829845 0.84918165 0.85553217
0000e0 0f 5b 5b 3f f4 c4 56 3f 60 f1 49 3f ef ef 6f 3f
       0.8568582 0.83894277 0.78883934 0.93725485
0000f0 11 59 78 3f e5 ef 6c 3f a7 29 79 3f 5a a9 59 3f
       0.97010905 0.9255355 0.9732918 0.85024035

fc.1.block.1.bias f4 [64]
000000 a5 3e b0 be 91 11 22 3e 3b 7e c1 be 86 eb 72 be
       -0.34422794 0.15827014 -0.3779162 -0.23722658
000010 3d 10 00 bf 90 da 04 bf 3f 5c 2d be 98 fd 18 be
       -0.5002478 -0.51896 -0.1692972 -0.14940488
000020 21 ce 08 3d 98 0a db bc 2f 3f 48 be 19 f1 01 bf
       0.033399705 -0.02673845 -0.19555353 -0.5075851
000030 9b de 64 bb 0e e7 c6 3d 6d ed 7a be ce 7e 60 3e
       -0.0034922722 0.09712039 -0.24504633 0.21923372
000040 37 b7 b5 bb f3 c3 90 be d4 82 be be eb cd 24 be
       -0.0055455226 -0.28274497 -0.3720919 -0.16094176
000050 50 ac 1c be fd 09 d3 bd 22 2c 7b be a0 2f 0e bf
       -0.15300107 -0.103046395 -0.24528554 -0.5554142
000060 c3 b9 8f be 13 5a b4 be c1 8d 24 bf 25 a2 dc bd
       -0.28071412 -0.3522497 -0.642788 -0.10773114
000070 3b f2 c3 bc 33 7a d7 be 65 77 c1 be b1 1a 8f 3d
       -0.023919215 -0.42085418 -0.37786403 0.06987513
000080 c0 43 8d be c6 7a 42 3d 5b 6a 98 be 43 f7 8f bc
       -0.27590752 0.047480367 -0.29768643 -0.017573958
000090 03 6a 7d be 1e 95 d7 bd 73 e5 d3 be 7e d7 bd be
       -0.24747472 -0.10526489 -0.41385993 -0.3707847
0000a0 97 99 34 be 33 bb 00 bf e1 b9 91 be 19 04 d3 bd
       -0.17636715 -0.50285643 -0.28462127 -0.10303516
0000b0 ac ee fb bd 1c 3c b6 be 1a 96 ca be dc 3c f8 bd
       -0.123013824 -0.35592735 -0.39567643 -0.12120983
0000c0 fd 2c c8 bc 77 a4 d5 be 0f d5 66 be fc bd 37 bf
       -0.024435515 -0.4172704 -0.22542213 -0.7177427
0000d0 7b 5a d6 bd e2 a6 0c bf fd 07 ad bd 7b 05 f9 bd
       -0.104664765 -0.5494214 -0.08448789 -0.121592484
0000e0 7c 47 e3 be 8a 2c 15 be 3a 8d e4 3d bc df eb bd
       -0.44390476 -0.14567772 0.11159749 -0.11517283
0000f0 fc 6b d8 be e6 03 a6 be 61 39 89 be e1 73 e4 bd
       -0.42269886 -0.3242485 -0.2680159 -0.11154915

fc.1.block.1.running_mean f4 [64]
000000 5b 2f 91 be b3 d6 4f bc 07 0b e6 be 3e 5a 2c be
       -0.28356442 -0.012685466 -0.44930288 -0.168313
000010 ce 12 90 be ae 67 10 bf a9 87 3f be e9 9c 3f be
       -0.28139347 -0.564082 -0.18704094 -0.187122
000020 64 72 85 bb c3 d6 a9 bd b5 8f 91 be 4e 89 a6 be
       -0.0040724743 -0.08292916 -0.28429952 -0.3252663
000030 95 66 f1 bd 52 b2 2c 3e 31 f4 6d be ac 96 d2 3d
       -0.11787144 0.16864899 -0.23237683 0.10282645
000040 f7 dc 9d bc 76 07 90 be cb 84 4d be fd 8f 57 be
       -0.019270403 -0.28130692 -0.20070188 -0.21051021
000050 df ce 2e bc 11 ab 2c be fa 26 9d be aa 45 05 bf
       -0.010669439 -0.16862132 -0.306938 -0.52059424
000060 e1 8b 60 be 37 46 95 be 7c 46 38 bf e6 e3 b7 bd
       -0.2192836 -0.29155132 -0.7198255 -0.08979015
000070 ed 25 fe bb 59 23 04 bf 57 46 63 be 13 b8 cf bc
       -0.007755986 -0.51616436 -0.22194801 -0.025356328
000080 0e 93 99 be 1c 57 53 3d 80 81 41 be d2 14 17 be
       -0.29995006 0.051596746 -0.18897057 -0.14754036
000090 f3 bf 9b be 47 69 47 be 48 0f 9c be de 07 b0 be
       -0.30419883 -0.19473754 -0.3048041 -0.34381002
0000a0 25 ac 9d bd dc 28 ce be 75 b5 95 be 6d 4d 8a bc
       -0.076988496 -0.40265548 -0.29240003 -0.016882623
0000b0 35 ba 6e be d7 26 72 be 4f 30 9b be b1 d3 ab bd
       -0.2331322 -0.23647629 -0.30310294 -0.08389986
0000c0 d8 5f 86 3d ff 3e ef be 28 7b b6 bd 49 c5 63 bf
       0.065612495 -0.4672775 -0.08910209 -0.8897291
0000d0 10 ed ef bd fa 1c d4 be 0a 5d 02 3d ab b9 ab bd
       -0.11715138 -0.41428357 0.03182701 -0.08385023
0000e0 de f6 ca be b1 1f 83 3c 80 a7 9a 3d 48 09 07 bd
       -0.3964147 0.016006323 0.07551479 -0.032967836
0000f0 96 36 bc be 9e be 21 be bf e2 53 be 6e 6a 2a be
       -0.36760396 -0.15795371 -0.20691966 -0.16642162

fc.1.block.1.running_var f4 [64]
000000 7d 8e 05 3f 0a 03 28 3e 91 c5 3b 3f 62 ee b1 3e
       0.52170545 0.1640741 0.7334834 0.34752184
000010 e2 5a 9a 3e 90 43 36 3f 7f 11 f6 3e 0e dc d6 3e
       0.30147463 0.7119684 0.48060223 0.41964763
000020 85 6d f7 3d 75 70 a7 3e b3 1b 00 3f 16 fc c8 3e
       0.12081436 0.32702985 0.50042266 0.39254826
000030 d0 0e 86 3e 23 54 c6 3e 95 2c 93 3e d5 11 82 3e
       0.26183176 0.38736066 0.2874495 0.2540423
000040 ea fe d4 3e 36 a0 ac 3e 9e e7 ed 3e 67 7f b0 3e
       0.41600734 0.3371598 0.46465772 0.344722
000050 b1 e7 4c 3e 94 44 ad 3e 4a 15 fa 3e 4b 04 de 3e
       0.20010258 0.33841383 0.48844367 0.4336265
000060 56 02 05 3f a5 66 3f 3f 77 4e bc 3e 56 55 9f 3e
       0.5195669 0.74766 0.36778614 0.31119794
000070 4d 98 93 3e c9 1c f8 3e b7 76 f1 3e 0c a8 b0 3e
       0.28827134 0.4845946 0.47160885 0.3450321
000080 be 45 0a 3f b5 73 08 3e a9 e2 ea 3e 23 90 f7 3e
       0.5401267 0.13325389 0.45876053 0.48352155
000090 fd f6 d4 3e 19 fa c5 3e 7a 8f 15 3f 9d 76 52 3f
       0.41594687 0.38667372 0.5842205 0.8221224
0000a0 97 5f ec 3e 38 46 16 3f 16 05 02 3f c8 7b a0 3e
       0.4616668 0.58700895 0.5078901 0.31344438
0000b0 bf 5b 09 3f fe 62 2f 3f 2d c9 0a 3f 15 98 a7 3e
       0.5365562 0.68510425 0.5421322 0.32733217
0000c0 31 7b e8 3e 62 1c b6 3e 2a f0 b5 3e cf 0e d7 3e
       0.45406488 0.3556853 0.35534793 0.42003486
0000d0 05 b7 a8 3e 89 2a d0 3e 26 f7 d2 3e 0d 7a cb 3e
       0.32952133 0.40657452 0.41204184 0.39741555
0000e0 4e 19 e9 3e 42 1f 94 3e f2 41 c5 3e a1 9b d9 3e
       0.45527118 0.28930098 0.38526875 0.42501548
0000f0 a6 33 1f 3f 1b 95 e5 3e ac 50 3c 3f 4d 17 cc 3e
       0.62188184 0.4484032 0.73560596 0.39861527

fc.2.block.0.weight f4 [64, 64]
000000 3c 89 e4 bb ee 83 c2 3d 38 9e 45 3a 2a b0 63 bc
       -0.0069743674 0.0949782 0.000753853 -0.013896981
000010 b4 c8 99 bc 12 1c 7d ba f3 f1 ac 3b ce 9a 9c 3e
       -0.01877246 -0.0009655367 0.005277866 0.30586857
000020 eb b2 a3 3d 1c cb ba bb f5 77 44 ba 80 09 79 3c
       0.0799311 -0.005700482 -0.00074946816 0.015200019
000030 66 a8 82 ba c1 14 d3 38 fa 39 9e 3a 1c e0 89 3c
       -0.00099684 0.0001006513 0.0012071722 0.016830496
000040 75 1a 47 3a 72 24 87 bb f8 4e 57 3b 57 ea 87 ba
       0.000759519 -0.0041242177 0.0032853466 -0.0010369521
000050 4a 50 23 3e 4c 4c 41 bc d1 7d d3 3d 7e fa 18 bb
       0.15948597 -0.011797976 0.10326732 -0.0023342664
000060 a5 ca bc 3e 14 03 7d 3b 98 fb 0b be 75 11 bf 3d
       0.36873356 0.003860657 -0.13670194 0.093295015
000070 d5 82 af bb ef a1 5a 3a 63 c7 14 3c 1d 35 94 bb
       -0.0053561726 0.000834017 0.009080741 -0.004522933
000080 60 b0 41 3e 85 a2 9c 3d 86 7b af b9 c9 90 c6 3b
       0.18914938 0.07648186 -0.00033470633 0.00605974
000090 b5 6c 31 bb e5 44 2d 3e 2e c7 6f bb 2c f4 da 3a
       -0.002707285 0.16920812 -0.0036587226 0.0016704849
0000a0 52 27 d6 ba 62 91 82 bb 9f 7f c0 3e 0f 42 c6 bb
       -0.0016338623 -0.003984616 0.37597367 -0.0060503553
0000b0 51 3f 77 3e 7d 6d 07 3a 68 92 c2 bb 15 88 1d 3d
       0.24145247 0.00051661563 -0.005937863 0.038459856
0000c0 28 7b f2 3d 03 75 88 bc 09 97 c7 ba d0 da 49 be
       0.118398964 -0.016657358 -0.0015227507 -0.19712377
0000d0 c6 7b a0 3d 41 df 6e bb 0d 58 22 3e e7 cc 17 3e
       0.07836108 -0.0036448988 0.15853901 0.14824258
0000e0 0f d9 89 bc c2 82 05 3e d4 3c 9c b9 f5 bc 03 3c
       -0.016827134 0.13038161 -0.0002979996 0.008040656
0000f0 b1 ad 21 3a 52 87 9c 3a ea 1d 01 3b cb 72 59 3e
       0.00061675446 0.0011942184 0.0019701668 0.21235196
000100 7c ca fe 39 6f 41 86 39 0b 5e 83 3a 03 5c bf bd
       0.00048597518 0.00025607224 0.0010022534 -0.09343722
000110 37 eb 1e 3c 3b 9d 74 3d 30 56 da 3b 98 1b 5d 3b
       0.009699634 0.05972026 0.0066631064 0.003373837
000120 55 91 f8 3b 16 1c 25 3b 7c 72 74 bb 95 7f be 3e
       0.0075856843 0.0025193742 -0.0037299683 0.37206712
000130 46 71 f5 bd 1c 66 a3 bd dc 23 cf bd 81 a4 2f 3c
       -0.11984496 -0.0797846 -0.101142615 0.010720373
000140 46 4b 6a bd b9 b1 e4 bd 3e ff 45 3e bf ad 1a 3e
       -0.057200693 -0.111667104 0.19335648 0.15105341
000150 0e 03 b7 3a 31 42 4a 3c 6d 53 8e bc 20 3e fc 3a
       0.0013962702 0.012344883 -0.017373765 0.0019244589
000160 19 c2 1c bc 06 e7 09 3c 5a 86 f2 39 5e 8f 91 bb
       -0.009567761 0.008416897 0.00046257937 -0.0044421395
000170 5c 16 86 bd 01 e1 8a b9 ee c4 06 3c c6 c1 da 3a
       -0.065472335 -0.00026489052 0.008225663 0.0016689829
000180 0d 8e b6 39 ce 03 c1 39 d9 ee 0e 3e 1c ee 1c 3b
       0.0003481958 0.00036814663 0.139583 0.0023945635
000190 53 81 2a bd 61 f8 63 bb 4b 9c b4 3e f7 f9 29 bc
       -0.04162724 -0.0034785497 0.35275492 -0.010374538
0001a0 38 7b db 3b b6 20 63 bb a9 2e 78 3c 3b 5d ca bd
       0.0066980384 -0.0034656948 0.015147843 -0.098810636
0001b0 81 bf 4e 3b fd 5b b1 3b 47 ae dd 3e e8 9b 40 bc
       0.003154725 0.005412577 0.43297026 -0.011755921
0001c0 70 c6 37 3c 56 c5 0c bd 80 f2 41 3e 87 06 c7 3a
       0.011216745 -0.03436788 0.18940163 0.001518444
0001d0 9a 66 0a bb b8 84 75 3b fb 56 b0 bb 65 58 e2 3b
       -0.0021118284 0.003746314 -0.0053814626 0.00690751
0001e0 7b eb 52 39 e4 39 ec 3b 74 27 53 3b d1 42 54 3b
       0.00020114884 0.0072090495 0.003221956 0.0032388458
0001f0 59 da 00 3f 3b 35 9e 3e 66 91 15 3c 8b e3 e5 3a
       0.5033317 0.30899987 0.009128904 0.0017539127
000200 43 d9 23 ba 3b ad 66 3d 99 1e 88 3b 79 15 a2 bb
       -0.0006250331 0.05631755 0.004154038 -0.0049464074
000210 d6 52 f4 bc 97 14 32 3b 99 35 7e bb 97 f7 e7 3d
       -0.029824656 0.0027172917 -0.003878927 0.11326521
000220 d6 6a 89 3d 71 4f 21 bb 26 1b a8 3b 73 0a ee 3c
       0.067098305 -0.0024614 0.0051301895 0.029057717
000230 3d 28 36 b9 b0 a8 37 ba a5 b2 c4 ba db cf 3e 3b
       -0.00017371862 -0.00070060324 -0.0015006854 0.002911559
000240 93 68 ab ba 2a 18 dc ba 62 ea bf 3a 99 0e 0e bb
       -0.001307743 -0.001679187 0.0014641995 -0.0021676181
000250 a5 ee f9 3d 56 0b 0f bc 95 1f 83 3d dd e1 aa 3c
       0.12203721 -0.00873073 0.06402508 0.020859653
000260 72 af 48 3e 48 be 0e 3b 8d b4 97 bd 99 6b b5 3d
       0.19598177 0.0021780897 -0.07407484 0.08858413
000270 49 2e 3c ba b9 28 6a 3b f4 33 ff 3a 3b 3b 71 3a
       -0.0007178528 0.003572984 0.0019470439 0.00092022464
000280 12 a9 56 3e 60 94 3d 3d b2 69 23 bb e3 b3 5b ba
       0.20962933 0.04628408 -0.0024934825 -0.0008380992
000290 ef d1 8e 3a a2 a5 d8 3d 50 ff 61 3a 15 55 14 bb
       0.0010896305 0.10578467 0.00086211134 -0.002263372
0002a0 d4 ad 32 39 30 f6 3b bb 94 b5 80 3e b9 2f 09 bc
       0.00017040159 -0.0028680675 0.25138533 -0.008373194
0002b0 a6 80 01 3e 91 ff 46 3a 4f da 00 bb 32 5f fc 3b
       0.12646732 0.0007591183 -0.0019661372 0.007701778
0002c0 24 e0 df be 83 6f af 3a 09 c6 49 bb 13 bc da bd
       -0.43725693 0.0013384674 -0.0030788204 -0.106804036
0002d0 1a 31 8c 3d 73 65 29 3c a9 8b 37 3e 7a e9 c4 3d
       0.06845303 0.010339129 0.1792437 0.096148446
0002e0 b3 84 70 bc 0e 35 c1 3d 91 b2 d1 3a 2d 73 7a ba
       -0.014680075 0.094339475 0.0015998652 -0.00095539057
0002f0 18 ab bc ba 03 a2 ef ba e3 58 3e 3b 78 84 b2 3d
       -0.0014394252 -0.0018282536 0.002904468 0.08716673
000300 4f 54 11 be 3b 85 2a 3b 0b 09 35 be 0d 68 de bb
       -0.14192317 0.0026019353 -0.17679231 -0.006787306
000310 6c d2 8c 3e b2 9f 04 be fd 35 1f 3e ca 51 6c 3b
       0.2750429 -0.12951544 0.15547939 0.0036059492
000320 91 b8 00 3c 5c a7 20 3e a5 43 41 3d 5c 90 55 3c
       0.007856504 0.15688843 0.04718365 0.013034906
000330 ce 34 e0 3a dc d8 0d 3c d9 c7 b0 bb 8b f1 64 3d
       0.0017105581 0.00865766 -0.0053949174 0.055894416
000340 34 11 fc bb e2 99 07 bc 1f f0 e1 bb 10 46 88 3b
       -0.0076924805 -0.008276435 -0.0068950797 0.0041587427
000350 1f 69 44 3c 62 05 fe 3c de f8 23 be 6b c7 6a bc
       0.011987953 0.031008426 -0.16012904 -0.0143297715
000360 9d 61 8f bb f7 a4 4e be 5b b4 03 be 39 ee 5d bc
       -0.00437565 -0.20180117 -0.12861769 -0.013545566
000370 e1 71 e2 3a d6 f3 ba 3d 35 50 eb 3d 9b e9 18 3e
       0.001727637 0.09128539 0.11489908 0.14932863
000380 da fc bb b7 c7 17 a9 3c bc f3 a4 bc 89 f3 ef 3d
       -2.240988e-05 0.02064122 -0.020135753 0.117163725
000390 ca 3f 1f 3c 75 3a ed ba b1 87 5e bc 89 dc 3f be
       0.009719798 -0.0018099087 -0.013582156 -0.18736471
0003a0 b1 db 5d 3e 54 b6 c2 3e 25 a9 e6 bb c2 e1 b9 bb
       0.21665837 0.3802973 -0.0070392066 -0.0056726644
0003b0 90 0f 6f 39 b2 0a 6c be 9c 26 5a bc b9 89 76 bb
       0.00022798614 -0.23050955 -0.013314869 -0.003761871
0003c0 1d 27 d9 bb 2e c0 94 bc f2 9b 03 3c 9a 11 53 be
       -0.006626977 -0.018158045 0.008032786 -0.20612183
0003d0 6a 08 bb 3b ea a4 5e bd 10 3a ff bb 49 fc d1 3b
       0.00570779 -0.054356493 -0.007788904 0.0064082486
0003e0 38 31 fb 3d fc 89 f0 3b dc fc ef 3d 16 67 f0 3d
       0.12265247 0.007340668 0.11718151 0.11738412
0003f0 52 94 00 3b 5f 4d 8e ba 03 56 56 be 4b fc 25 bc
       0.0019619656 -0.0010856799 -0.20931248 -0.010130952

fc.2.block.0.bias f4 [64]
000000 09 6a b6 bd dc bc ab 3d a4 1d ec 3d 60 50 88 bd
       -0.08906943 0.083856314 0.11529091 -0.06655955
000010 c7 28 55 3c 2e 9c 9b 3d a0 a7 f4 3b 7c 5b ba 3d
       0.01301021 0.07598148 0.0074662715 0.090994805
000020 ac 70 60 3c 8f 0f 6c 3d df 30 24 3c a3 49 a7 bd
       0.013698738 0.057632025 0.010021417 -0.08168342
000030 ba e9 16 bd da 63 f0 3d 48 1e 18 3d 21 f9 63 3c
       -0.036843993 0.11737795 0.037138253 0.013914377
000040 e8 ee eb 3d 03 62 3d bd b4 08 3a bb 61 37 2f bd
       0.11520177 -0.04623605 -0.0028386535 -0.042777423
000050 77 11 2e bd 9f b8 01 3d 44 67 3b 3d 9b b1 ae 3d
       -0.042497125 0.03167021 0.04575278 0.08529969
000060 a4 78 b7 bd 7a f4 44 3d fa 29 2a bd 70 21 43 3c
       -0.08958557 0.048084714 -0.04154394 0.011909828
000070 5a 14 83 3d 6c 4c bf 3d c9 c1 2a 3c 6f 40 09 bb
       0.06400366 0.09340748 0.010422179 -0.0020942946
000080 61 c9 c1 bd 0f e0 16 bd 9a 5f 4b 3d a5 9a f9 bc
       -0.09462238 -0.036834773 0.04965172 -0.030469248
000090 c1 a2 c5 3c 68 7a 9f 3d 95 ee ea bd ba ff 17 bc
       0.024125459 0.07787019 -0.11471287 -0.009277279
0000a0 62 01 54 3d ef 50 6e bd 16 6f d5 3d 25 36 5f 3a
       0.05175913 -0.058182653 0.104215786 0.0008514843
0000b0 d6 f2 d5 bd 7e 8e 08 be b0 37 83 bd 13 5b 65 3d
       -0.10446708 -0.13335606 -0.06407106 0.05599506
0000c0 16 93 f1 bd f9 75 e3 bd ef af 46 3c 52 1e fb 3d
       -0.117956325 -0.11106486 0.012126907 0.122616425
0000d0 81 fc ad bc 67 66 3d bd 8a f9 d4 3d ec e4 29 3b
       -0.021238567 -0.046240237 0.10399158 0.0025923802
0000e0 21 32 95 3d e0 8d 79 bd 67 fc dd 3c 9c 28 b2 bd
       0.07284952 -0.06092632 0.027097894 -0.08699152
0000f0 e4 c4 a3 3c 42 be f9 bd 58 33 b9 bd 42 9d c2 bc
       0.019991346 -0.12194492 -0.09042996 -0.023756627

fc.2.block.1.weight f4 [64]
000000 14 62 33 3f a2 97 74 3f 18 6f 3c 3f d1 8a 69 3f
       0.7007153 0.95543873 0.73607016 0.9122744
000010 57 bd 81 3f 89 05 80 3f 64 1f 7f 3f b7 42 7d 3f
       1.0135907 1.0001689 0.99657273 0.98929924
000020 b1 a8 37 3f a9 8e 3f 3f 57 a1 77 3f 34 58 45 3f
       0.7174178 0.7482706 0.9673056 0.7708771
000030 17 54 78 3f 52 b5 83 3f 1c cf 76 3f 59 43 7c 3f
       0.9700331 1.028971 0.96409774 0.98540264
000040 af b7 7a 3f 0e 5c 30 3f b6 1f 8c 3f 48 75 6f 3f
       0.9793653 0.68890464 1.0947177 0.9353833
000050 f3 6e 6c 3f 7f e8 83 3f 8e 16 84 3f 61 99 7a 3f
       0.92356795 1.0305327 1.0319383 0.9789029
000060 e5 71 37 3f 6c c5 72 3f 66 35 7c 3f e8 73 70 3f
       0.71658164 0.9483249 0.9851898 0.9392686
000070 db bb 81 3f 93 bf 7b 3f 38 64 80 3f ab 59 5c 3f
       1.0135454 0.98339194 1.0030584 0.8607432
000080 6a 03 7f 3f dc df 77 3f bb 60 67 3f 84 d0 82 3f
       0.99614584 0.9682596 0.90381974 1.0219884
000090 45 c8 79 3f 19 4a 7c 3f 6c 2a 6e 3f 82 56 83 3f
       0.9757121 0.98550564 0.9303348 1.0260775
0000a0 a9 ae 69 3f 8a 87 82 3f 60 62 81 3f 70 7e 78 3f
       0.91282135 1.0197613 1.0108147 0.9706793
0000b0 05 e7 32 3f ae 7c 74 3f bb f0 58 3f d2 5c 7a 3f
       0.6988376 0.95502746 0.84742326 0.9779788
0000c0 6b fe 84 3f d4 ef 72 3f e0 9b 2e 3f 3f 69 45 3f
       1.0390142 0.948972 0.68206596 0.7711372
0000d0 f9 df 83 3f 41 c8 84 3f d2 c8 6a 3f 80 a8 7a 3f
       1.0302726 1.0373613 0.9171268 0.9791336
0000e0 34 cb 39 3f 53 a2 2d 3f 79 93 67 3f b9 5b 84 3f
       0.7257569 0.6782581 0.904594 1.0340492
0000f0 36 55 39 3f d9 cf 68 3f 12 89 87 3f 71 81 5a 3f
       0.72395647 0.9094215 1.0588706 0.8535376

fc.2.block.1.bias f4 [64]
000000 ea 06 dc 3e 71 98 1b 3e ab ce a4 3e ab 96 37 3e
       0.42974025 0.1519487 0.32188925 0.17928569
000010 98 0d 59 be af 0e 0b be 10 93 fa 3c 5b ba 71 be
       -0.21196592 -0.1357982 0.030587703 -0.23606245
000020 b8 0a df 3e 10 7b a2 3e 1d b8 3f be 86 96 76 3e
       0.43562865 0.31734514 -0.18722577 0.24080858
000030 b8 ed ed bd e4 bc 7f be 58 8f 28 3e 27 1d 9b 3d
       -0.11617607 -0.249744 0.16460931 0.0757392
000040 53 c0 2b 3e e7 4a d7 3e 68 41 88 be df 9e 52 be
       0.16772585 0.42049333 -0.266124 -0.20568417
000050 f4 8b fd 3c 31 46 3d 3e 04 9f 34 be 84 31 1c be
       0.030950524 0.18483807 -0.17638785 -0.15253264
000060 9a cf da 3e 31 bc df 3d 8a ed fe 3d 4e 39 88 3e
       0.42736512 0.109245665 0.12447651 0.2660622
000070 a1 9b 80 be db 7e 65 bd 94 f4 d4 bd 43 a4 bd 3d
       -0.25118735 -0.056029182 -0.10398212 0.09259846
000080 8e e5 2b be 15 98 25 3d a2 8d 47 be f8 bd 56 be
       -0.16786787 0.04042824 -0.19487622 -0.20970905
000090 a0 16 cf 3d 69 06 cb bd f7 70 05 3e 19 86 42 be
       0.10111737 -0.09913332 0.13031374 -0.18996467
0000a0 7d 4d 4c 3e b6 24 d7 bd 34 be 62 be c4 56 11 be
       0.19951434 -0.10505049 -0.22142869 -0.14193255
0000b0 61 c5 dc 3e 5c 60 24 3e 8a c8 24 3e 80 78 a9 be
       0.43119338 0.16052383 0.16092125 -0.33099747
0000c0 8d 32 31 bd f2 8a 6d 3e d4 74 cc 3e bc 0b d7 3e
       -0.0432611 0.23197535 0.39932883 0.4200114
0000d0 ca 38 89 be 98 86 1a be cc 45 8a 3d 73 fb 9b 3d
       -0.2680114 -0.15090406 0.06751594 0.076163195
0000e0 ec 6b 09 bf 18 b1 d5 3e 6d d2 32 3e 26 35 0f bd
       -0.536803 0.41736674 0.17463084 -0.034962796
0000f0 80 c6 b2 3e 44 ba 94 3e c0 88 0a be a6 f9 69 3e
       0.34917068 0.2904836 -0.13528728 0.2284914

fc.2.block.1.running_mean f4 [64]
000000 1f 22 02 3f d3 a6 7e 3e 4a 5a b2 3e 12 70 21 3e
       0.50833315 0.24868326 0.3483451 0.15765408
000010 01 ad 7e be 10 53 af bd 3b 28 76 3d 7e 76 49 be
       -0.24870683 -0.08560765 0.06009696 -0.19674107
000020 f2 6f 16 3f 36 bd c3 3e cf d2 39 be e4 74 c8 3d
       0.58764565 0.38230294 -0.18146823 0.0978792
000030 19 8c 42 be 14 99 09 bd 48 e2 56 3e d3 c9 b5 3d
       -0.18998756 -0.033593252 0.20984757 0.088763855
000040 c1 89 8e 3e cd 55 0f 3f b3 fb 4f be 24 42 8f be
       0.27839473 0.55990297 -0.2031086 -0.2798015
000050 ad bc 20 3d 3b 98 d9 3d b5 0f 18 be d7 33 bc bd
       0.039242435 0.10624739 -0.14849742 -0.09189575
000060 b2 44 09 3f f9 64 2a 3e 9e 1e af 3d 94 8d 9e 3e
       0.53620446 0.1664008 0.08550762 0.3096739
000070 98 16 84 be 79 b6 84 3d b5 2a 12 be bb 2c 82 3c
       -0.25798488 0.064801164 -0.14274104 0.01589047
000080 d0 10 95 be eb dd 1f bd 07 ee c4 bd b6 fb 96 be
       -0.2911439 -0.039029997 -0.096157126 -0.29488915
000090 43 e1 cd 3d 64 d7 93 bb ce 5c fd 3c 69 b0 4e be
       0.10052731 -0.0045117605 0.030928042 -0.20184483
0000a0 72 36 8d 3e 57 b1 25 be 18 0f 05 be d6 b2 09 be
       0.275806 -0.16180931 -0.12994039 -0.13447127
0000b0 c9 3e 09 3f d7 af 8e 3c 22 44 6a bb f0 0f 96 be
       0.5361143 0.017417831 -0.0035746177 -0.29309034
0000c0 e4 e9 2b be 75 1c 0b 3e 86 48 05 3f 7b 58 1e 3f
       -0.16788441 0.13585074 0.52063787 0.6185376
0000d0 b3 97 a8 be d4 e1 5c be 05 ab 8a 3d b6 d1 cb 3d
       -0.32928237 -0.21570522 0.06770901 0.099521086
0000e0 8b 6a 26 bf a7 f9 08 3f 8b ac 8c 3e b6 76 d9 bd
       -0.6500632 0.5350594 0.2747539 -0.106183454
0000f0 f1 74 ca 3e 9a c9 62 3e b6 0c 6e be 56 d0 95 3d
       0.39542344 0.22147217 -0.23247036 0.073151276

fc.2.block.1.running_var f4 [64]
000000 b1 41 75 3f 78 8e 37 3f 43 e8 8e 3e ce 25 84 3f
       0.9580336 0.71701765 0.27911577 1.0324037
000010 a5 45 88 3f 72 a4 6e 3f 4c c7 42 3f 22 e9 83 3f
       1.0646254 0.93219674 0.7608535 1.0305521
000020 82 6b 60 3f 09 c7 3d 3f bb 25 2b 3f 41 e1 05 3f
       0.87664044 0.7413183 0.6685445 0.52296835
000030 f7 26 49 3f 14 1b 20 3f bc e1 4d 3f 78 99 59 3f
       0.7857508 0.6254132 0.8042257 0.849998
000040 ad 41 64 3f 15 33 7b 3f ec 26 b0 3e 84 21 46 3f
       0.89162713 0.9812482 0.34404695 0.7739489
000050 87 6a 80 3f b3 7b 03 3f 7e 42 54 3f 05 6c 02 3f
       1.003251 0.51360625 0.8291396 0.50946075
000060 f3 0a 8a 3f 7b 97 2c 3f 5b a3 3e 3f 9b 49 82 3f
       1.0784591 0.6741864 0.7446801 1.0178713
000070 33 88 9c 3f 07 3d 2c 3f 90 ca 08 3f 1b 3e 00 3f
       1.2229065 0.6728062 0.53434086 0.50094765
000080 13 26 01 3f 4f 4d 48 3f 6a 75 e7 3e 28 66 95 3f
       0.5044872 0.78242964 0.45206767 1.1671801
000090 40 59 55 3f ef 47 4e 3f cf 0b 1d 3f 26 3f 4f 3f
       0.8333931 0.8057851 0.61346143 0.8095573
0000a0 d3 3c 7d 3f 3c fb 3b 3f c8 6a 4e 3f f4 7b 7d 3f
       0.98920935 0.7343023 0.80631685 0.9901726
0000b0 e6 3f 8d 3f d5 6f 75 3f 8e 38 e8 3e a5 01 48 3f
       1.1035125 0.9587377 0.45355648 0.7812751
0000c0 33 5c 22 3f ee b5 78 3f b3 f7 38 3f 2e 69 52 3f
       0.63421935 0.971526 0.7225296 0.8219174
0000d0 d4 9e 8e 3f 69 3b 6d 3f 05 39 c2 3e 9f a3 39 3f
       1.114222 0.9266878 0.37934127 0.7251529
0000e0 b2 c7 47 3f c6 8e 6f 3f 8c 47 95 3f 4b b5 58 3e
       0.78039086 0.9357723 1.1662459 0.21162908
0000f0 22 30 24 3f 70 58 96 3f e5 7a 5f 3f aa f9 c3 3e
       0.64135945 1.1745739 0.872969 0.38276416
